model.pth (torch, 81723 bytes, 8 tensors)

fc1.weight f4 [64, 46]
000000 cb 89 0e bd cb 51 34 bd 60 5e af 3e 75 70 03 3e
       -0.03479938 -0.044023316 0.3425169 0.12835868
000010 b8 4a bf bd 85 15 b6 3c ec 0a 9e bc 2a 33 81 bc
       -0.09340423 0.022227058 -0.019292317 -0.015771467
000020 5a da 80 bb 8c fe 49 3d 4f 8d d3 bd f1 e5 b6 3d
       -0.0039322795 0.04931502 -0.10329687 0.089305766
000030 5f 77 8f be 5b 27 fa bd 43 04 c3 be 60 27 47 be
       -0.2802076 -0.12214538 -0.3808919 -0.19448614
000040 70 e4 f1 be 20 a2 a3 bf 86 b7 17 ba 24 82 ca bd
       -0.47244596 -1.2783852 -0.000578754 -0.098881036
000050 c6 27 1c 3d 1c 6e f4 bd e0 1c 3a bd 0e d1 90 bd
       0.03812387 -0.11935064 -0.045437694 -0.07071124
000060 3d f8 1a 3d c2 05 c0 3d 86 48 a5 bb b1 08 84 bd
       0.037834395 0.09376098 -0.005044046 -0.0644697
000070 07 a1 3a bc 91 60 65 bd bc 56 b0 bc cd 65 54 bb
       -0.011390931 -0.056000296 -0.021525733 -0.003240931
000080 d9 47 35 3d ac df b3 bc ed 6e 27 bd 9b b7 20 bd
       0.044257972 -0.021957241 -0.04087727 -0.0392376
000090 7a 81 ae bd 22 41 ab 3d 43 77 20 bd 21 d0 6e bd
       -0.085207894 0.083620325 -0.039176237 -0.058303956
0000a0 bb 18 1a 3d e1 72 a3 bd 98 54 c8 bc e4 bb 65 bc
       0.03762124 -0.07980896 -0.0244544 -0.014021847
0000b0 9b c8 80 bd 92 f6 e5 bd 20 6f 10 3d 94 98 d8 3a
       -0.062882625 -0.1122867 0.035262227 0.0016524964
0000c0 bf ff 0c be 76 28 54 be 23 2f 4f 3e 5a 4d 9c 3d
       -0.13769434 -0.2071856 0.20232825 0.07631941
0000d0 53 82 41 be 60 8a c7 3c ce 51 df bb 35 59 90 3e
       -0.18897371 0.024357975 -0.006815172 0.2819306
0000e0 4a 6b 91 3d b6 63 dc be 2b 89 f3 3d 25 d9 e5 bd
       0.07100542 -0.43044823 0.11891397 -0.11223058
0000f0 d1 13 d5 bc 8a 80 80 3d 9d 0a 99 3e 5b e8 a0 be
       -0.026010426 0.06274517 0.2989091 -0.31427273
000100 5b ba 82 3b 90 a2 00 39 23 b2 c2 bc fd d8 39 bd
       0.0039895005 0.0001226759 -0.023766583 -0.04537295
000110 e6 62 57 3b 58 ad d1 bc 19 a1 fa 3b bb 97 03 bd
       0.0032865345 -0.025595352 0.007648599 -0.032127123
000120 59 72 03 be c0 6f 80 bd e6 cd 5a bd 81 f5 be bc
       -0.12836589 -0.062713146 -0.053419016 -0.023310425
000130 12 21 81 bd 04 93 40 bd c1 30 55 bd 55 c5 cb be
       -0.06305136 -0.047015205 -0.05204845 -0.3979899
000140 7b f6 4f 3d 8b 1b 28 3d d5 40 fa 3c d8 fb 8f bd
       0.05077217 0.041041892 0.030548492 -0.07030457
000150 1a e7 ae bc 4c ab 39 bd 10 ad 55 3c bb 89 76 3b
       -0.021350432 -0.045329377 0.01304175 0.0037618715
000160 cf 65 cd bd 7f 7e 43 bd de 31 aa ba c0 5c d5 3c
       -0.10029184 -0.047728058 -0.0012984832 0.026045203
000170 1b 47 cf bc ea 32 cc 3c 74 d3 20 3e db 00 86 3e
       -0.02530246 0.024926621 0.15705663 0.26172528
000180 9b ea 1e 3e e5 17 59 3d 2c 63 30 be 61 71 b0 bd
       0.15519182 0.053001303 -0.17225331 -0.08615375
000190 a7 82 36 bc 4d 51 38 be 2b ee 58 3e 29 e8 52 bd
       -0.011139548 -0.17999764 0.21184604 -0.051490936
0001a0 2e 7e c0 be 94 74 b5 3d a2 21 9f 3d 56 24 0e be
       -0.37596267 0.08860126 0.07770087 -0.13881049
0001b0 4a da ef bd 0c e1 6b be ed 36 d7 bd 5c f6 21 be
       -0.11711557 -0.23035067 -0.10508523 -0.15816635
0001c0 df f7 90 3c fc c0 0c be 07 0f 52 bd 34 35 2b bd
       0.01769632 -0.13745493 -0.051283862 -0.041798785
0001d0 fa 9a 50 bd 99 0f ad bd 3a e7 c9 bd 62 07 86 bd
       -0.050929047 -0.08450241 -0.09858556 -0.06544377
0001e0 63 09 84 be 5b da 00 be f5 ca 20 bd e9 0f 04 bd
       -0.25788411 -0.12583296 -0.039256055 -0.032241736
0001f0 0d f8 86 bd 5a 50 3b be f3 29 d9 bd 2f 90 2f be
       -0.06590281 -0.1829237 -0.10603704 -0.17144845
000200 48 7c 37 be a7 23 20 3d 70 85 2e be ab 66 dd bc
       -0.17918503 0.0390965 -0.1704309 -0.027026495
000210 ee 74 0f be 3f 21 25 bd 04 91 94 be 18 55 4b be
       -0.14009449 -0.04031491 -0.29016888 -0.1985668
000220 0b 3b e0 bd a6 00 8c bc ad 85 d3 be dc ef a7 be
       -0.109487616 -0.017090153 -0.41312924 -0.32800186
000230 f8 63 8d 3c a8 57 d3 3c b7 92 6f be 1c ce 9d bd
       0.017259583 0.025798634 -0.23395811 -0.07705328
000240 a6 1e fe bd db f6 6d 3c 1d 7e 14 be 1f a9 b8 3e
       -0.124081895 0.014524187 -0.14501233 0.3606653
000250 b0 41 3f 3e 94 4f ef 3e a8 b3 9e be 94 d3 58 be
       0.18677402 0.467404 -0.30996442 -0.2117446
000260 28 90 86 3e 75 ea f7 39 fd 60 ba 3e ee 49 86 3e
       0.26281857 0.00047286195 0.3640212 0.2622828
000270 48 26 18 3d 1d 75 42 bd 0d b2 64 bd fa 07 e9 bd
       0.037145883 -0.04747497 -0.055833865 -0.113784745
000280 e2 76 d3 bd 78 62 e9 3d 66 9a a2 3d 62 75 6e 3c
       -0.103254095 0.113957345 0.079396054 0.014554353
000290 22 b0 ef bd 89 1b df bd 5b c4 50 3d 86 b3 81 bd
       -0.117035165 -0.10893924 0.05096851 -0.063330695
0002a0 04 3c a2 bd 2c 47 37 bc 73 e5 de 3c 95 f6 e1 3c
       -0.07921603 -0.011186402 0.02720902 0.0275834
0002b0 50 13 92 bd 15 51 7f 3d cf 3b 2c 3e e3 f6 06 3c
       -0.0713259 0.062333185 0.1681969 0.008237573
0002c0 c1 da b6 3d 4e 43 a7 3d b1 cf cc 3d ed 08 a6 bd
       0.08928443 0.08167134 0.100005515 -0.08107171
0002d0 de c1 9b 3e a8 e8 a5 bc f2 e4 1a bd 7b 17 cf bd
       0.30421346 -0.02025254 -0.037815996 -0.101119004
0002e0 a9 dd d0 3c 72 22 b4 3b 4d c8 8e bf 01 88 f8 bb
       0.02549632 0.0054972703 -1.1154877 -0.0075845723
0002f0 dc ab 61 bb b1 07 18 bd 05 5a 70 bd 51 4a 3b 3d
       -0.0034434712 -0.03711671 -0.0586796 0.04572517
000300 ae 8d b6 3c d9 98 83 be fe 2d 99 3d cb e7 33 3e
       0.022284355 -0.2570255 0.074794754 0.17568891
000310 51 16 7d 3c 76 ce a1 bc 22 a6 8b bd a7 2a ac 3e
       0.015447215 -0.019751769 -0.06818797 0.3362629
000320 9a 50 ff be 27 a3 1c 3d f5 78 28 3e a9 d4 be 3d
       -0.49866182 0.03824153 0.16452391 0.093179055
000330 72 a8 02 3e 37 1d d8 bd 93 a3 b4 bd 8e f6 c1 bd
       0.1275957 -0.10552447 -0.08820262 -0.09470855
000340 5c fa bb 3d c4 c2 4c 3d 24 00 46 3d 32 94 11 3e
       0.09178612 0.04999043 0.048339978 0.14216688
000350 d1 76 5f 3e e6 c8 b2 3d ad 67 b1 3d 28 c8 ab 3d
       0.21822669 0.087297246 0.08662353 0.08387786
000360 2b 9d f6 3d a1 6a dd 3d 72 04 b9 bd 6d 58 f1 bd
       0.12041696 0.108113535 -0.09034051 -0.11784444
000370 62 e0 63 bd 76 b0 ac 3d 1c 75 0e 3e 00 3f be ba
       -0.05563391 0.08432095 0.13911861 -0.0014514625
000380 5a 26 25 bd 4c 05 79 bd d2 f9 77 3e 54 32 0b be
       -0.040319778 -0.060796067 0.24216393 -0.13593417
000390 71 a2 cb 3d 9d 7c 2a 3e 30 da 0e 3e ab 23 9f bd
       0.099430926 0.16649099 0.1395042 -0.07770475
0003a0 6e 46 ae 3d 53 a0 a4 bd a2 2b 55 3e c4 7d 91 be
       0.08509527 -0.08038392 0.20817426 -0.28416264
0003b0 0a 77 52 3e 57 68 e1 bd ec ae 04 3d 31 ce 03 3f
       0.20553222 -0.11006229 0.03239338 0.514865
0003c0 10 07 1a bd da 66 96 be fc 8b 4d be b1 5f b0 3e
       -0.03760439 -0.29375345 -0.20072931 0.34448007
0003d0 3d a3 cd 3e 4c ad 2a 3e 27 97 07 3f 22 c8 10 3e
       0.40163603 0.1666767 0.52965015 0.14138845
0003e0 40 49 94 bc bc b5 11 bc cb 82 8d bd 3a d0 34 bc
       -0.018101335 -0.0088934265 -0.069097124 -0.011035973
0003f0 1c 6e 88 bd 18 38 a3 3c 19 5c 99 bd 2a eb 3b bc
       -0.06661627 0.019924209 -0.07488269 -0.011469642

fc1.bias f4 [64]
000000 d3 34 ee 3c b5 79 fd 3c cd db 6d 3c ad 67 6f 3e
       0.029077923 0.030941823 0.014517737 0.23379393
000010 d4 1b aa bd a6 d4 25 be ff db 78 bd cf f8 95 3c
       -0.08306089 -0.161944 -0.06075668 0.018307118
000020 af c8 2b bd 5c 0b 99 3d 16 f7 c3 bd 73 62 52 3e
       -0.041939434 0.0747287 -0.09568612 0.20545368
000030 ee 4f 8c bc 1a 4c a3 bb 00 05 12 be 06 aa 03 be
       -0.017127957 -0.0049834372 -0.1425972 -0.12857828
000040 01 73 fa bd a9 b0 a0 bd 4a 17 25 be 0e 48 e5 bd
       -0.122289665 -0.07846195 -0.16122165 -0.11195384
000050 70 ac 44 bc 71 b1 0b bd be f9 43 3d f2 61 9e 3d
       -0.012004003 -0.03410477 0.047845595 0.07733525
000060 80 18 0e be b7 04 ca bd 96 60 da bd db 10 b8 bd
       -0.13876534 -0.098641805 -0.106629536 -0.0898759
000070 c8 b1 6b bd f3 56 1c 3e 7b ab 7c bd ed d1 4c 3d
       -0.057542592 0.15267543 -0.061686974 0.05000489
000080 43 ab a5 3b 60 eb 25 bd df f0 c8 3d 35 8a b2 bd
       0.0050558164 -0.040507674 0.098115675 -0.08717767
000090 fe 53 ad 3d e4 8d 02 be ee b7 1d be 11 ad 5f bd
       0.08463286 -0.1274944 -0.15402195 -0.05460841
0000a0 c7 18 90 3d 5a a7 19 3d 2f 3f 11 3e a0 c2 35 3d
       0.07035976 0.037513115 0.14184259 0.044375062
0000b0 a3 f1 0c be ce bf 66 bb 6f 6b 33 3e 20 88 c6 3c
       -0.13764052 -0.003520954 0.17521451 0.024234831
0000c0 33 58 ac 3c e9 21 f6 bd 22 f2 12 3d 4e d3 2c be
       0.02103815 -0.120181866 0.035875447 -0.16877481
0000d0 09 82 3c be 2f b0 06 3d f5 b8 2c 3b ae 98 95 bd
       -0.1840898 0.032882866 0.002635536 -0.07304512
0000e0 96 01 04 be 1f ef ba 3d 41 8c 3f be 3d aa 27 3d
       -0.1289123 0.0912764 -0.18705846 0.040933836
0000f0 71 96 06 3d 80 f0 96 3d 22 09 a5 bd 47 7c 15 be
       0.032858316 0.073700905 -0.080583826 -0.1459819

fc2.weight f4 [128, 64]
000000 34 81 eb 3c 84 98 5e 3d c0 48 cf bd 6d ce f1 be
       0.028748132 0.05434467 -0.10121298 -0.47227803
000010 30 b4 40 bf a8 6b 3e bf 44 c5 00 3e c5 02 c1 3d
       -0.75274944 -0.7438302 0.12575251 0.09424356
000020 3a b5 7d 3c aa cc 83 3d a9 57 44 3d a5 53 d8 bd
       0.015485102 0.06435521 0.04793516 -0.10562829
000030 b8 4b 8f 3d 9f a1 b9 bd da 0f e0 3b 7d 32 f5 3d
       0.06996864 -0.0906403 0.006837827 0.119725205
000040 2c 36 8f bd 48 fd e4 bd 0b e7 49 3e 73 b8 c4 38
       -0.06992754 -0.11181122 0.19717042 9.380365e-05
000050 c7 5b 87 bc eb ac d2 bb 8d cb 93 bd 79 99 57 be
       -0.016523255 -0.006429305 -0.072165586 -0.21054639
000060 4b ea 93 3d 82 2d 0e 3d b7 93 fb bd d1 9d 35 3d
       0.07222422 0.03471137 -0.12284034 0.04433996
000070 c5 cb 57 be 28 5b 1b be 86 e4 01 bf 49 e4 8c 3d
       -0.21073826 -0.15171492 -0.50739324 0.068794794
000080 c2 f2 fb bd 9d 16 ee bd 67 5b 39 3d 24 c8 4b bd
       -0.12302162 -0.11625407 0.045253184 -0.049751416
000090 32 da e6 bd 5a 6c 13 3e e2 38 92 bb b1 f4 42 bf
       -0.11272086 0.14396802 -0.0044623474 -0.7615462
0000a0 61 fe 0e be b5 e9 c0 3d 2a 4c d5 3c aa d8 19 bb
       -0.13964225 0.09419576 0.026037294 -0.002347509
0000b0 30 31 8d 3b 01 97 80 3d 82 a6 95 be f7 01 6c be
       0.004308842 0.06278802 -0.29228598 -0.23047625
0000c0 bb 79 7c bf 09 aa f7 3d ca 08 15 3d 2f bb ad bb
       -0.98623246 0.120929785 0.036385335 -0.005301855
0000d0 00 d9 3a 3b 3d b5 cf bd 40 22 50 be df a7 53 be
       0.002851069 -0.1014199 -0.20325565 -0.20669506
0000e0 6b 64 08 bc 02 f2 50 be 3e 38 1d bd e8 17 76 3e
       -0.008324723 -0.20404819 -0.038383715 0.24032557
0000f0 a8 ab d2 bc ce be f6 bb 89 84 86 bb c4 04 03 be
       -0.025716618 -0.00753007 -0.004105155 -0.12794787
000100 87 0e ea bd 79 12 ad 3d 39 56 c0 be 2e 4d 21 3d
       -0.11428552 0.08450789 -0.37565783 0.039380245
000110 52 fd 0b be af 75 b4 3e e3 b0 05 3f 63 9d 35 be
       -0.13670853 0.35246035 0.5222303 -0.1773582
000120 6b 72 97 bd c3 15 47 3e d0 34 1a bd f4 9f 55 bb
       -0.0739487 0.19441895 -0.037648022 -0.003259656
000130 1e 38 d9 3e 00 42 e8 be 1c 57 3a 3d cf 86 26 bf
       0.42425627 -0.45362854 0.04549323 -0.6504945
000140 8c d0 59 3e 6d 23 9b 3d 3e 8c ba 3d 11 dd 46 be
       0.2127096 0.07575116 0.0910878 -0.19420268
000150 fe 88 0e be 66 66 47 be 89 81 01 bf 01 48 47 3e
       -0.13919446 -0.19472656 -0.5058828 0.19461061
000160 23 e8 d1 be 43 c5 02 3d 87 8e 06 be 7d 4e e4 3e
       -0.4099742 0.031926405 -0.13140307 0.44591132
000170 1f 59 08 3f ec 5a 96 bb eb 86 c8 be 96 e6 b2 bd
       0.5326099 -0.0045884755 -0.39165434 -0.08735387
000180 a9 a3 d5 bd 08 23 86 be ca 08 e2 bd 30 32 7b bd
       -0.10431606 -0.26198602 -0.11036833 -0.06132716
000190 1e 86 91 be 95 57 82 3e fb a5 e0 3e 72 24 98 bd
       -0.28422636 0.25457445 0.43876633 -0.074288264
0001a0 ea 63 01 3f 90 e4 bb 3c 44 d6 6b bd 4a ff 1a 3f
       0.5054308 0.022936136 -0.057577386 0.6054579
0001b0 b6 76 0f be f3 ac 65 bc f2 4f a8 3e 62 76 e9 3e
       -0.14010128 -0.014018285 0.32873493 0.4559813
0001c0 b6 75 36 3e 15 a5 c5 be b8 79 c6 3e ab 1b c8 3d
       0.1781834 -0.3860251 0.3876474 0.09770902
0001d0 88 c1 10 3e 3c 45 53 be 8c b3 2e bf 70 1b 02 3e
       0.14136326 -0.2063188 -0.68242717 0.12705779
0001e0 7f c9 e1 bd f0 5c 79 bd e2 f4 6b 3e c2 87 fe 3d
       -0.110247605 -0.060879648 0.23042634 0.124282375
0001f0 e2 76 08 bf 20 46 45 be 4e bb b9 bd 72 db 3f bf
       -0.533064 -0.19265032 -0.09068929 -0.7494422
000200 fc ed 95 bf 8a b0 b2 3c eb ea 64 bf be 4d 78 bd
       -1.1713252 0.021812696 -0.89420956 -0.060621016
000210 0b fa 02 bf cd 17 9d bf b4 77 3b bf 02 3f ec 3e
       -0.51162785 -1.2272888 -0.7322953 0.4614182
000220 af 0f cd 3b fa a3 84 bf 6c 1d bf 3a 4b 68 60 bc
       0.006257973 -1.0362542 0.0014580912 -0.01369674
000230 3a c4 ed bd 5a 20 8c bf e2 e6 bb bd c3 4b 0c 3e
       -0.11609693 -1.0947373 -0.09174897 0.13700776
000240 12 34 ed be 0e dc 24 bd 50 37 b4 3c 10 90 e6 3e
       -0.4632879 -0.040248923 0.021999031 0.45031786
000250 90 b2 84 3d 5f 0d 41 ba 46 32 69 bf 89 17 c3 bc
       0.064793706 -0.0007364358 -0.91092336 -0.023814933
000260 20 47 1b 3e f1 b6 25 be af 5f a5 bd d3 6d 86 3d
       0.15163851 -0.16183068 -0.08074891 0.06563916
000270 84 08 74 bf 39 3b 07 be 66 f3 b3 3c 52 c0 26 be
       -0.95325494 -0.13206185 0.021966647 -0.16284302
000280 d4 66 5e bd 0d 10 1a bd 74 89 8b 3c 87 bd 4f bf
       -0.054297283 -0.037612963 0.017033316 -0.8114857
000290 b7 fc 66 bd 0c b6 45 bd f1 59 ff be 24 35 d1 3d
       -0.05639335 -0.048269317 -0.49873307 0.10215214
0002a0 92 1c a5 bd 4d 14 5f 3c 54 a4 99 be 7f c8 01 bd
       -0.0806209 0.01361568 -0.30008185 -0.03168535
0002b0 bd 4e 00 3e ab c8 96 bc cf 38 db bc a1 28 ab 3e
       0.12530036 -0.018406233 -0.026760487 0.33429435
0002c0 69 f1 8c bd a3 88 02 3e d7 4b 0c be b5 11 82 3d
       -0.06881983 0.12747435 -0.13700806 0.063510336
0002d0 f2 34 2c 3d fa 62 20 be 63 88 9d bf be 2f 4e bf
       0.04204268 -0.15662757 -1.2307247 -0.805416
0002e0 38 ee 92 bd f3 0d ca bf a4 48 d5 3d 4b e6 8f 3c
       -0.07174343 -1.5785507 0.10414246 0.017565867
0002f0 03 e3 4e 3c f2 7a 8c bf a5 89 2c 3d f0 e1 db bf
       0.012627366 -1.097502 0.042123456 -1.7178326
000300 28 c3 20 bd d7 1e fd bd af c0 1b be 7d a9 00 bf
       -0.039248616 -0.12359398 -0.15210222 -0.5025862
000310 9a 8b 73 bd 68 1b 3e be 6d 55 c0 be d1 85 ce bd
       -0.059459306 -0.18565142 -0.37565175 -0.10084117
000320 1f 1f c9 3c 4e 74 35 3c 5a 51 41 bd dd 4b 59 be
       0.024550973 0.0110750925 -0.047196724 -0.21220346
000330 c6 60 93 be 2b 2d 07 be f7 0b 98 3d ba 26 15 3d
       -0.2878477 -0.13200824 0.07424157 0.036413886
000340 2a 59 1d be ed f6 7c bd c0 78 94 3c bf 07 a9 3e
       -0.15366045 -0.061758924 0.018123984 0.33013722
000350 8d 24 15 3d 26 69 40 3c fa 1e 0c 3e 8e 36 13 bd
       0.03641181 0.011743819 0.13683692 -0.0359407
000360 61 53 f9 bd 3c ce 0b 3d f8 ad 07 3e 2f 6a 3c 3e
       -0.121741064 0.034132227 0.13249958 0.18399881
000370 15 30 a0 3d 3a d8 ab bd 02 6f 63 be 4c 26 26 3e
       0.07821671 -0.08390851 -0.22210315 0.16225547
000380 0f 39 7f 3c 02 d7 ee bc df d3 36 3c bd 64 b4 bc
       0.015577569 -0.029155258 0.011158912 -0.022020692
000390 02 72 2d 3d 6b d3 04 be ff 22 e9 3d 62 24 3d be
       0.042345054 -0.12971275 0.11383628 -0.1847091
0003a0 38 6b 1c 3e ff 24 60 3d 17 c1 d7 bd 76 f5 81 be
       0.15275276 0.054722782 -0.10534876 -0.25382584
0003b0 af 6c b6 ba c3 15 f3 bc d1 e4 a1 be 4a fd 78 3e
       -0.0013917888 -0.029673463 -0.31619886 0.24315372
0003c0 69 01 28 bf 53 65 8c 3d 79 27 90 be 1c 9f 11 3e
       -0.6562715 0.068552636 -0.28155115 0.14220852
0003d0 42 71 38 3e 81 75 98 ba 3d a6 30 be 8b 13 16 be
       0.18011954 -0.0011631699 -0.17250915 -0.14655893
0003e0 41 ba 40 3d 01 03 42 3c 8e 9e 5d 3e 09 9a d8 3d
       0.047052626 0.0118415365 0.21642515 0.10576255
0003f0 d6 64 cb bc af 02 23 bb 29 54 e9 bc 1c 0e 10 3e
       -0.024828356 -0.0024873426 -0.028482514 0.14067882

fc2.bias f4 [128]
000000 76 3f 21 bc 5c 77 9b bd ec e5 2b 3c b0 9d 08 3c
       -0.00984179 -0.07591125 0.010491829 0.008338377
000010 0a 4a 31 bb 28 30 8b bc 6b 0a ea ba 2d 0a 1d bd
       -0.0027052187 -0.016990736 -0.0017855888 -0.038339783
000020 13 8f c1 bb 02 79 88 bb 5a ea 1e bc b6 a7 eb 39
       -0.0059069484 -0.004164816 -0.009699428 0.00044947647
000030 88 0e cc bb ca 41 0e 3a de be 8b 3b 86 2c df bb
       -0.006227318 0.00054266735 0.0042646965 -0.0068107275
000040 59 57 03 bb 1c 6c 00 be a1 2d 0a bd db 66 80 bc
       -0.0020041077 -0.1254124 -0.03373492 -0.015674045
000050 d5 dc c3 bc 06 12 4d 3c 62 e2 4e bb cb 1c 7f ba
       -0.023909012 0.012516504 -0.003156804 -0.00097317685
000060 5d c2 72 3b 03 4c f9 3a f3 66 e3 bb 45 16 49 bc
       0.003704212 0.0019019846 -0.0069397627 -0.012273376
000070 82 1b 11 bc d6 4a b0 bd 94 38 38 bd ec ea 43 3c
       -0.008856656 -0.08608024 -0.044975832 0.011957865
000080 5b 07 05 be a2 d2 00 bb e7 51 87 bd 73 28 cc b9
       -0.12991087 -0.0019656797 -0.066074185 -0.0003894005
000090 20 c1 79 3a 94 f4 9c bd 4d 82 f3 3b cf 43 05 bc
       0.0009527374 -0.07663837 0.0074313045 -0.008133843
0000a0 1f 9e cc bc 69 c8 12 3c 1a 78 14 3c 19 cc f5 3b
       -0.024977742 0.008958914 0.009061838 0.007501137
0000b0 1d e6 2e 3c 40 c0 a4 ba 65 ba 45 3c 6a 19 3b 3c
       0.0106749805 -0.0012569502 0.012068366 0.011419633
0000c0 8a 0c 82 3b bd 89 9c 3b ed 2f b1 bc 42 b2 bf 3c
       0.00396878 0.004777162 -0.021629298 0.02340043
0000d0 13 4a 73 3b c9 fb e0 3b 2c de a2 bb 19 7d 8a 3b
       0.003712301 0.0068659526 -0.0049703326 0.0042263386
0000e0 00 ba b8 3c 08 c2 65 bc 78 44 0d bb 19 e9 b0 ba
       0.02254963 -0.014023311 -0.0021555703 -0.0013497203
0000f0 96 74 9d 3b 9d e4 07 3b 91 78 4e 3b 1d f9 5f 3a
       0.004805158 0.002073563 0.0031504969 0.00085438957
000100 6a cb 20 bd a3 02 21 3a 70 48 2d bd ad 94 ae bd
       -0.03925649 0.00061420555 -0.04230541 -0.085244514
000110 29 6b ea 3b da c6 01 bd 4f 93 d4 3b f9 ce 8a b9
       0.007153888 -0.03168378 0.006487287 -0.00026475618
000120 41 77 72 3b bd f6 f2 bc ce f3 86 bc 65 e0 d6 bb
       0.003699735 -0.02965867 -0.016473677 -0.0065575116
000130 d5 97 0c 3c 73 0a cd bd 0d 6e 06 be 31 fe 99 3c
       0.008581121 -0.10011759 -0.13127919 0.018797966
000140 f0 35 10 3c 69 d3 92 3a 4a f8 03 be f3 d4 f4 bb
       0.008801922 0.0011201921 -0.12887684 -0.0074716746
000150 b2 a2 47 3c 43 02 e1 3b e2 82 38 bb 9c ea ac 3b
       0.012184786 0.0068667247 -0.0028154184 0.005276991
000160 e1 f9 d6 3b eb a3 b5 3c 00 77 d3 3b eb 3a 27 bb
       0.0065605496 0.022172889 0.006453395 -0.0025517296
000170 77 dc 82 3a e9 a3 4b 3a 40 6e 1d ba 70 35 39 3c
       0.0009983917 0.000776826 -0.0006005503 0.011304244
000180 a2 82 05 3c 4e b3 61 3b 51 52 3b 3c db 3c 02 3c
       0.008148821 0.003443915 0.0114332 0.007949079
000190 0f b9 9d 3b 90 90 5c bc 26 a0 06 3c eb 7d 86 bc
       0.0048133205 -0.013462201 0.008216893 -0.016417464
0001a0 9d dc 19 bd 8e 3c 02 3c da 4a dd ba 1f f4 04 3c
       -0.03756391 0.007949008 -0.001688327 0.008114844
0001b0 25 29 83 3c d4 07 16 3b 0e 30 6a 3c af d6 42 bb
       0.01601083 0.002289285 0.014293684 -0.0029730012
0001c0 20 c5 73 bc b4 a9 4e 3c 63 4d 71 3b 97 0f 0d 3b
       -0.014878541 0.012613703 0.0036819808 0.0021524185
0001d0 88 e6 ae ba 36 ab 13 3b 50 d3 b3 bd b0 b4 88 bb
       -0.001334385 0.002253247 -0.08780539 -0.0041719303
0001e0 c9 2d c2 b9 ec 26 8d bb 33 00 1d bc 96 77 34 3a
       -0.00037036676 -0.0043076184 -0.009582567 0.0006884275
0001f0 bd 41 4e bc 07 52 03 bd 45 1e 8f bd b0 6e 85 3b
       -0.012588915 -0.03206065 -0.06988195 0.004072033

fc3.weight f4 [64, 128]
000000 26 5b 99 3d 4f da 21 3b 40 e8 0d bf a7 08 41 be
       0.07488088 0.0024696772 -0.5543251 -0.18850957
000010 90 9e 84 bd d1 c9 67 bd 08 ed 71 3d 0b d5 6e 3d
       -0.06475556 -0.05658895 0.05906394 0.058308642
000020 dc e5 68 bd 3b c5 c7 3b 5d 36 ad be 8a 00 09 3d
       -0.056859836 0.0060965098 -0.33830538 0.03344778
000030 bc 77 a4 3b bb f2 ee bb 3e 90 94 bd 29 93 0d bc
       0.0050191563 -0.0072921193 -0.072540745 -0.008641043
000040 29 3c 76 3a 75 ca e7 bc e7 41 52 be 1a e4 1d 3e
       0.000939312 -0.028294781 -0.20532952 0.15419045
000050 37 b9 94 be 0b bc 15 3c ad 05 99 3c 65 3c 9f bd
       -0.29047558 0.009139071 0.018679464 -0.07775191
000060 d1 1c 6f bd e1 0b ae 3d d4 c3 f2 bc 54 70 9e 3d
       -0.05837709 0.084983595 -0.029634394 0.07736269
000070 a4 03 b2 3c 60 71 c6 bd 32 b3 76 3b bf 78 88 bd
       0.021730252 -0.09689593 0.003764343 -0.066636555
000080 4f f1 bb 3c 64 1b 8d 3e 34 04 91 3c 46 e4 59 3e
       0.022942213 0.2755996 0.0177022 0.21278486
000090 4b f4 7e bd 51 4d 02 3a 16 9b c2 3b b6 30 d9 3d
       -0.062244695 0.00049706275 0.005938898 0.10604994
0000a0 45 f8 96 bd ea 33 c5 3c e7 18 68 bf 7d 79 23 ba
       -0.073715724 0.024072606 -0.90663 -0.00062360597
0000b0 61 e7 88 be e1 b9 1a be 57 b7 c6 3b bf fd 83 be
       -0.26739028 -0.1510997 0.0060643363 -0.2577953
0000c0 24 80 4f ba f3 23 ad be 31 f0 07 bc f1 8a 70 bc
       -0.0007915518 -0.3381649 -0.008297012 -0.014681564
0000d0 eb 88 f7 ba 7f 75 a7 ba 42 d1 89 3b 0a 4e e4 bc
       -0.0018885409 -0.0012776105 0.0042058537 -0.027869243
0000e0 62 07 87 bd 5c f5 aa 3c e2 2c 2d 3c c3 ea 66 bc
       -0.06593205 0.02086895 0.010569783 -0.0140940575
0000f0 e7 d1 77 bd 34 18 b1 ba 48 b7 bd be ae 13 bc bd
       -0.060502913 -0.0013511241 -0.37053895 -0.09183441
000100 53 fb 97 3b ac 6c 14 3b 20 72 0b 3b fc 34 a2 bc
       0.0046381145 0.0022647781 0.002127774 -0.019800656
000110 f3 14 89 bc 9d 5d e4 3d a3 b2 1d 39 4d 78 e6 be
       -0.016733622 0.11150668 0.00015039234 -0.45013657
000120 88 52 61 bc a3 70 34 bb 7a af e3 bd 60 61 9b bb
       -0.013752587 -0.0027532957 -0.11117454 -0.0047418326
000130 01 ea aa be dd 54 b5 bd ba b1 68 3c a6 ba 2c ba
       -0.33381656 -0.08854077 0.01420253 -0.0006589092
000140 c6 96 41 bc d7 8c a1 3e 95 75 80 bc a6 09 05 be
       -0.011815732 0.31552765 -0.015681067 -0.12991962
000150 d7 b9 56 3b ac 68 b1 bd 34 ab 5c 3d 27 26 f9 3d
       0.0032764578 -0.08662543 0.05387421 0.1216548
000160 df 8c d4 ba 26 b2 92 be f9 7c 95 3e 01 6d 7b bc
       -0.0016216299 -0.2865154 0.2919691 -0.015345813
000170 11 df 7f 3c 8a 44 71 bd 96 bb 45 bc cd 71 58 bd
       0.015617148 -0.058903255 -0.01206865 -0.052842904
000180 f7 68 28 bf 48 ea 74 3b 3a f0 bf be a1 b4 96 bd
       -0.65785164 0.0037371088 -0.37487966 -0.07358671
000190 13 14 80 bd 89 c1 d8 bb 7d c3 ce bb bf 36 05 be
       -0.06253829 -0.006614868 -0.006309925 -0.13009165
0001a0 da e5 bd be 03 75 aa bd 59 65 00 bd f9 a7 87 3e
       -0.37089425 -0.083230995 -0.031346653 0.2649534
0001b0 8f ac e8 be 7b ae 99 be 83 64 f0 bc bd 4a 07 3c
       -0.45444152 -0.3001593 -0.029344803 0.008257565
0001c0 78 99 9a 3e 47 c0 af be 1e c0 21 bf 4b 38 b5 be
       0.30195212 -0.34326383 -0.6318377 -0.3539451
0001d0 c6 ef 21 bb 7a d0 26 bd ad e2 b0 bd 97 b1 ee bc
       -0.0024709566 -0.040726162 -0.08636985 -0.029137416
0001e0 f2 90 fa bc 32 2b af bc a6 33 41 bd d1 a3 a8 3b
       -0.030586693 -0.021382902 -0.047168396 0.0051464816
0001f0 a1 f8 ee bd f7 01 06 bb a7 ab e0 bb e1 dd 8e 3b
       -0.11668516 -0.0020447948 -0.0068564 0.004359946
000200 83 e6 65 bd 6c 8e 7c bd 89 0b fd 3c 62 e9 9a 3c
       -0.056128036 -0.06165926 0.03088929 0.018910114
000210 c7 15 2f 3b d7 08 3f bd 1c f1 51 bd bc 39 b6 bd
       0.0026715861 -0.04663929 -0.05125533 -0.08897731
000220 02 6a 88 bd e0 da b7 bd 98 22 b0 bd 7d ed 82 bd
       -0.066608444 -0.08977294 -0.08600348 -0.063929535
000230 73 7c dd bc 0d 4f a7 bd 07 8d b2 bd 6c 0b 8d 3d
       -0.027036881 -0.081693746 -0.08718305 0.06886944
000240 90 27 9b 3c 42 19 86 bd c4 41 c7 3c 10 15 b8 bd
       0.018939763 -0.06547786 0.024323352 -0.08988392
000250 8f 46 3f bc d0 f8 c3 3c 8f 0d 6e 3c 91 ab 98 3d
       -0.011674537 0.023922354 0.0145296 0.07454599
000260 65 40 5e bd 60 44 9a bd 57 ee 69 bd 4c 65 67 bd
       -0.05426063 -0.07532573 -0.057112064 -0.05649309
000270 d3 ac ea bc c6 39 28 bd be fb 12 3d 41 8b 60 3c
       -0.028646862 -0.041070722 0.03588461 0.013705076
000280 c7 44 a5 3c 21 3a fd bc 9f 87 5f bd e5 f0 0b 3d
       0.020174397 -0.030911507 -0.054572698 0.03416528
000290 fb 0a 95 bd 05 23 87 bd fa 76 02 3c 47 9a 44 bc
       -0.07277485 -0.06598476 0.007962937 -0.011999673
0002a0 8b 10 92 bd ef 95 8a bd 29 b9 80 3d 10 99 11 3d
       -0.071320616 -0.06766879 0.062853165 0.035546362
0002b0 fd 20 9e bb b3 e6 65 bb 43 33 d9 bb f1 ca a5 bc
       -0.00482571 -0.0035080134 -0.0066284253 -0.020238372
0002c0 03 8c af bc 01 87 ca bc 90 8c 3e bc 7a c7 ba bd
       -0.021429067 -0.024722578 -0.011630192 -0.091200784
0002d0 d8 08 a5 bd 27 b4 c8 3b 35 c9 4e bc b3 de 9f 3d
       -0.080583274 0.0061249915 -0.012621214 0.078061484
0002e0 b8 4a 6c 3d a3 bc 98 3d c0 08 26 3d 49 4a 9e bd
       0.057688445 0.074578546 0.04053569 -0.077290125
0002f0 2c 0c 89 bd 51 28 61 bd 11 90 9f bd 60 67 f7 3b
       -0.06691775 -0.05497009 -0.0779115 0.007550165
000300 09 37 27 3d 56 c6 7d 3d 02 06 c8 bc e0 ae 61 bc
       0.04082397 0.061956726 -0.024416927 -0.013774604
000310 87 15 2f bd bf 75 21 bd 38 80 b5 bd c5 05 96 3d
       -0.04274514 -0.039418932 -0.088623464 0.07325319
000320 d4 20 cb 3c 05 7a 53 3d 92 ef 79 3d 9a 64 dc bc
       0.024795927 0.05163004 0.061019488 -0.02690344
000330 fe 3d 81 bd fe a6 8a 3d 86 b1 2e 3d f5 8e 41 bd
       -0.06310652 0.067701325 0.04264977 -0.047255475
000340 ce 58 a6 bd 07 d9 4a 3d 8c f8 57 bd 0e 20 80 3d
       -0.08122407 0.04952338 -0.052727267 0.06256114
000350 df 3d 15 bc 9f c1 a3 3d e6 a8 85 bc 7d 0b 91 3c
       -0.0091089895 0.07995915 -0.016315889 0.017705673
000360 82 80 61 bd 44 d8 9a bd 60 00 5f 3d 8c 62 60 bd
       -0.055054195 -0.07560781 0.054443717 -0.05478148
000370 f0 73 62 3c e3 3e 7a bd 4b 31 01 bd b9 df 41 bd
       0.013821587 -0.06109513 -0.03154115 -0.0473325
000380 fa c0 ac 3d 99 fa 86 3d bb b2 90 bd 33 1b 66 bd
       0.08435245 0.065907665 -0.0706534 -0.056178283
000390 af 78 8e bd b3 a1 50 bc 45 97 a3 bd 0e 24 2f bd
       -0.06956612 -0.012733865 -0.07987837 -0.042758994
0003a0 1b f8 f9 3c 5b a6 01 3d fa a2 54 3b 7d 44 53 3c
       0.030513814 0.03165279 0.0032445774 0.012894747
0003b0 60 20 fb bb 90 3f b4 bd cc bf 40 3d 64 c5 82 bc
       -0.0076637715 -0.08801186 0.04705791 -0.015963264
0003c0 d3 1a 78 3d b7 c4 95 3d e4 6d 80 bd d1 17 b0 bd
       0.060572457 0.07312911 -0.0627096 -0.085982926
0003d0 29 6e 53 bd 94 83 0c 3d c8 75 b5 3c 87 57 63 bd
       -0.05161873 0.03430517 0.022150889 -0.055503394
0003e0 4b cb d9 bc a3 38 f1 3c c7 cc 83 3d 1d ce db 3c
       -0.026586195 0.029445952 0.064355426 0.02683168
0003f0 ab d0 fb bc 94 49 73 bd 21 49 3d bd 1f 80 96 bb
       -0.03073915 -0.05939634 -0.04621232 -0.00459291

fc3.bias f4 [64]
000000 cc fc 3f 3c 3b e4 a8 bd d7 c3 b6 3c 81 49 16 3c
       0.011717986 -0.082466565 0.02231018 0.009172798
000010 85 c5 2f 3c 47 a8 7e bd 1a 68 a3 3c 5e 9a 6c bd
       0.010728245 -0.0621722 0.0199471 -0.057764404
000020 9b 09 52 3c d2 63 46 3b 8f e7 ef 3b e2 40 1c 3c
       0.012819673 0.00302719 0.007321305 0.009536954
000030 25 a3 be 3c bb 6f bc 3c 79 10 53 3c 69 40 29 3c
       0.023271153 0.023002496 0.012882345 0.010330298
000040 79 4b 6a 3c 7a 63 e2 3b f3 38 01 bd 7f 11 bc 3c
       0.014300221 0.006908831 -0.03154845 0.022957562
000050 f4 46 76 bd 6c 4d 70 3c a3 d5 00 3c 8c db 4a bd
       -0.06012626 0.014666896 0.007863435 -0.049525782
000060 03 52 0f 3c ed 09 5a 3c ba 42 51 3c 2d 0c 17 3c
       0.00874758 0.013308031 0.0127722565 0.0092192115
000070 20 db 2c 3c 77 d4 15 3c 63 a0 48 bc 35 4f 52 3b
       0.01055029 0.009144894 -0.01224527 0.0032090668
000080 e8 72 29 3c 53 e7 b2 3b a3 2e 21 3c 08 30 57 3c
       0.010342337 0.005459705 0.009837779 0.01313401
000090 42 41 0c 3c 7c 8e 68 3c ca 21 84 3c b4 6b 0f 3c
       0.008560481 0.014194127 0.016129393 0.008753706
0000a0 1f e5 b5 bd 8d 8e 15 3c 99 eb 44 3c c7 20 3f b9
       -0.08881592 0.009128225 0.0120190615 -0.0001822739
0000b0 b8 40 88 3c 38 5b 3e 3c d1 07 3c bd 55 7d 6b 3c
       0.016632423 0.011618428 -0.04590589 0.014373143
0000c0 14 2d d7 3b b1 9b b8 bd 90 07 5d 3c c7 79 df 3c
       0.006566653 -0.09014071 0.013490573 0.027279748
0000d0 49 b4 af bd 0d bd 41 3c 89 8d 6f 3c 5e 06 39 3c
       -0.085793085 0.011824858 0.014621147 0.011293022
0000e0 d5 59 d4 bd 1e fc aa 3c 7b 09 96 3c 48 9e 10 3c
       -0.103686966 0.020872172 0.018315068 0.0088268
0000f0 37 13 0e 3c 61 ea 29 3c 44 79 e5 3b d2 6f fd bc
       0.008671573 0.010370822 0.0070029814 -0.03093711

fc4.weight f4 [4, 64]
000000 52 94 ba bd 70 07 ba bb 87 c8 ff 3e 4f 6b 72 3e
       -0.09110321 -0.005677156 0.49957678 0.23673747
000010 8a b2 60 bd 7e df 0c 3d 6a 36 49 3e 8f 23 00 3d
       -0.054857768 0.034392826 0.19649664 0.03128391
000020 ae 0b 9e 3e 45 28 59 be 86 fa 5a 3e a3 47 2c 3e
       0.30868286 -0.21206768 0.2138463 0.16824202
000030 0c c0 0d 3f 4b 1d e2 3e 15 5a 6f bd cd 82 35 3e
       0.55371165 0.44162974 -0.05843552 0.17725678
000040 a3 f7 7f 3e 85 64 24 3e aa bb 80 bb e1 26 df 3e
       0.2499681 0.1605397 -0.0039286213 0.4358435
000050 31 1b 30 be a4 a8 fe 3d f2 52 d3 bd ff 0d 68 be
       -0.17197873 0.124345094 -0.10318555 -0.22661589
000060 4a 2e d4 3e ea 2d 03 3e 30 77 fd 3d 55 6f 8a 3e
       0.41441566 0.12810484 0.12376249 0.27038065
000070 4d 07 22 bd 17 69 c0 bd df a7 c5 bd 27 33 9e bf
       -0.039557744 -0.09395044 -0.096511595 -1.235936
000080 7c 76 fb 3d a0 77 e5 3e c5 c0 57 3e 07 6e d3 3d
       0.122784585 0.4481783 0.2106963 0.103237204
000090 c2 d6 c6 bd bb a0 f5 3d 3e 62 49 3e f1 2c 56 3e
       -0.097089306 0.119935475 0.19666383 0.20915581
0000a0 74 8b ba 3d 28 46 0f 3e 3c 42 da 3d 3d 4b 04 be
       0.0910863 0.13991606 0.106571645 -0.12919326
0000b0 a9 5c f3 3e 19 a5 fe 3d 19 a0 33 bc 07 02 c2 3e
       0.47531632 0.12433834 -0.010963463 0.37892172
0000c0 98 09 42 3e 0f d7 fa 3a a8 1f 0b be 2f 4f 14 3e
       0.18948972 0.0019137579 -0.13586295 0.14483331
0000d0 46 b3 ad bd 51 f2 c2 3e 63 65 27 3e c4 03 a9 bd
       -0.08481459 0.38075498 0.1634727 -0.08252671
0000e0 7b ae 2d bd f8 2e 5e 3e 89 ad 4c 3d ce 6e 2b 3e
       -0.042402726 0.21697605 0.049970184 0.16741487
0000f0 d7 e2 64 3e 3d 54 39 3e e4 6f f6 3d 31 a3 00 3f
       0.22352158 0.1809854 0.1203306 0.5024901
000100 79 d1 d6 bd 62 be bf bc 0c 5b 1d 3f c4 39 44 3e
       -0.104891725 -0.023406211 0.6146705 0.19162661
000110 e1 29 4c bd cc 97 08 3d 58 08 2d 3e 11 75 2b bd
       -0.049844626 0.03334789 0.16897714 -0.04185969
000120 3f dc a9 3e 85 ae 4a be 75 6b 55 3e 8b d9 28 3e
       0.33175847 -0.19793136 0.20841773 0.16489236
000130 8b 57 d6 3e 49 2f b4 3e 77 26 64 bd a5 db 26 3e
       0.41863665 0.35192326 -0.055700745 0.16294725
000140 3a af 70 3e 76 83 1c 3e b6 83 22 bd 59 45 03 3f
       0.23504344 0.15284523 -0.03967639 0.5127769
000150 5e d0 0a bd c1 5e 04 3e 99 05 b7 bd 81 57 73 3d
       -0.03389012 0.12926771 -0.089366145 0.059409622
000160 c9 a7 ab 3e 80 2a e8 3d 70 a3 02 3e ea 3a 79 3e
       0.33526447 0.11336231 0.12757659 0.2433888
000170 0b 65 0f bd e0 d4 ae bd 6d 95 df 3d 95 6e a0 bf
       -0.03500847 -0.085366964 0.109171726 -1.2533747
000180 33 f1 19 3e b3 91 8f bd 37 3e 7d 3e d6 b7 e3 3d
       0.15033416 -0.07010212 0.24730764 0.11119048
000190 58 ca 0c be 76 d4 ff 3d af d1 15 3e f5 6a 80 3e
       -0.13749063 0.124916956 0.14630769 0.25081602
0001a0 c2 61 a7 bd ee 2b f3 3d cb 08 0f 3e 46 d6 8c be
       -0.08172943 0.11873613 0.13968198 -0.27507228
0001b0 c8 68 f4 3e 3f b9 ff 3d 7d 5d 05 bd 60 5b c2 3e
       0.47736192 0.12486505 -0.03255986 0.3796034
0001c0 85 84 38 3e 0d c7 ab 3d 4b 3c 0d be 7c ec 08 3e
       0.18019302 0.08387575 -0.13792531 0.13371462
0001d0 33 fc 5b 3d 78 4b e3 3e 52 c9 22 3e d1 ba 93 bd
       0.053707313 0.44393516 0.1589711 -0.07213367
0001e0 b6 46 4f bd 2b fb 4a 3e 9b 36 6e 3d 4a 24 55 3e
       -0.050604545 0.19822375 0.058157545 0.20814624
0001f0 3a b8 61 3e f4 29 1a 3e e9 02 cb 3d 3a bd db 3e
       0.22042933 0.15055066 0.099126644 0.42917806
000200 55 74 42 3a 9c 79 76 3d 1c c6 12 bb f4 3e 9c ba
       0.00074178475 0.06017457 -0.0022395914 -0.0011920617
000210 ce 6f d5 ba 73 7d b8 3f 08 cd 1d ba 29 ff 9c bd
       -0.0016283931 1.4413284 -0.0006019627 -0.076658554
000220 3b 2f b2 39 23 fe 48 3c d4 65 1d 3a e2 7a 86 b8
       0.00033985995 0.012267622 0.0006004248 -6.4125066e-05
000230 05 93 98 b9 7e 22 bf 3a 0d 38 19 ba 90 ff 8d ba
       -0.00029101237 0.0014582423 -0.0005844839 -0.001083361
000240 04 0f bc b9 22 67 02 3a aa 6c ae 3d 2a b9 51 ba
       -0.00035869342 0.00049744744 0.0851682 -0.0008000309
000250 59 5a 0f bd a2 61 ab b9 23 f4 ba ba c1 dd ad 3c
       -0.03499827 -0.00032688404 -0.0014263432 0.021223905
000260 85 40 2b 3a a6 7d 43 ba 9e 01 04 ba be c9 17 3a
       0.00065327465 -0.0007457383 -0.00050356414 0.0005790255
000270 ab bf 28 ba d5 f1 d4 b9 78 b5 92 3d 7f 82 1a 3c
       -0.0006437252 -0.0004061597 0.07163519 0.009430527
000280 ba a7 e0 b9 c5 63 43 ba ab c0 00 38 12 88 9d 3a
       -0.00042849575 -0.00074535265 3.0697014e-05 0.0012018702
000290 46 e9 5b 3b e3 1d 52 b9 38 04 10 39 eb 50 ea 37
       0.003355579 -0.00020038294 0.00013734482 2.7932654e-05
0002a0 05 aa d8 3d b1 0b 10 b7 3b 7c ef b8 f8 f1 81 ba
       0.10579304 -8.585791e-06 -0.00011419548 -0.0009914031
0002b0 0f e7 9f ba 1b b7 80 b9 b8 69 65 3f 1a 0b b8 b9
       -0.0012199598 -0.00024550487 0.8961444 -0.00035103486
0002c0 54 9e db b9 08 77 ac 3d 9d d7 30 3b fe e5 95 b9
       -0.000418889 0.08421141 0.0026983984 -0.00028590852
0002d0 0e fc 7c 3d b0 93 b2 3a 00 09 30 b8 06 7d cd ba
       0.061763816 0.0013624337 -4.1970052e-05 -0.0015677519
0002e0 5d 06 f3 bd 6d 7f 56 39 69 ef 02 ba fa d9 1e 39
       -0.11866448 0.000204561 -0.00049947813 0.00015149257
0002f0 96 9a 2c b9 13 bf a0 3b 6f 28 7a b9 d6 fa c2 b9
       -0.00016460786 0.0049055903 -0.0002385692 -0.0003718945
000300 51 34 f3 bd df ff ec bd c5 49 cf 3e 2c cb f5 bd
       -0.11875213 -0.11572241 0.4048597 -0.120016426
000310 d8 2c a3 bc 48 4d b9 bc e9 a3 cb bd ba 8e 15 3d
       -0.019918844 -0.022619858 -0.09943373 0.036513068
000320 e3 93 18 3e 3d bb 46 bd ba 29 ea 3d 03 5e 84 3d
       0.14900164 -0.048518408 0.1143374 0.06463244
000330 b5 c6 be 3f 97 b3 5e 3f 7a ae fb bc 67 fc ab bd
       1.490439 0.8699278 -0.030722845 -0.08397751
000340 70 14 d6 3c 16 75 9c 3d b0 9c 84 bc 5d 0b 06 3e
       0.026132792 0.0763952 -0.016187996 0.13090272
000350 6a 3e b7 bd 10 05 93 3e aa 31 11 bd 40 b8 e5 bd
       -0.089474514 0.287148 -0.035447754 -0.112167835
000360 50 a7 c8 3e b7 1f 9b bd ac 88 a7 bd 76 26 16 3e
       0.3919015 -0.075744085 -0.08180365 0.14663109
000370 fb 01 81 bc eb b2 52 bd a8 8a 26 bd 8a b6 6f bf
       -0.015748015 -0.05144016 -0.040659577 -0.9363791
000380 75 6d 52 3d a9 c8 30 3d 4e a0 a5 3d 5e da 5a 3c
       0.051373918 0.043160114 0.08087216 0.013357727
000390 38 aa af 3d c0 81 af bd 31 c0 fd 3e 4f 75 cd 3d
       0.085773885 -0.0856967 0.49560693 0.100321405
0003a0 2f 37 34 bd 40 4b b6 3e 61 53 cf 3c d8 09 45 3f
       -0.04399794 0.35604286 0.025308313 0.76968145
0003b0 4f ab e4 be 7e 65 93 3e dc 33 87 3d ec ab 82 3e
       -0.44661948 0.2878837 0.06601688 0.2552179
0003c0 6f d8 82 3d f6 5e b9 bd b3 93 19 bd 9a 9f 92 3e
       0.06388938 -0.090513155 -0.037494373 0.2863739
0003d0 70 d9 b4 3d 51 9c 3d 3e c2 66 b2 3e 5d 11 f2 bc
       0.088305354 0.18516661 0.34844023 -0.029549295
0003e0 4a 56 0b bd 27 29 df 3e a5 f3 2a 3e 9a 40 1c 3d
       -0.03401784 0.43586084 0.16694506 0.038147546
0003f0 39 af 3f be 8e 7c 30 bd c9 91 bf 3e 67 65 da bd
       -0.18719186 -0.043087535 0.37415913 -0.10663872

fc4.bias f4 [4]
000000 d8 59 85 3c 2d 95 78 3c 6b b1 a4 37 ac 5a c3 3b
       0.016278192 0.015172285 1.963294e-05 0.0059617367
