model.pth (torch, 715183 bytes, 10 tensors)

fc1.weight f4 [64, 40]
00000000: 9eb8 c2be ee73 2dbe 0ae9 a4bd ae44 ad3d
00000010: 3c81 3e40 7725 50be 874c d9bd 3229 4fbd
00000020: fe27 4fbd 4ef2 22bd c3de f33c 84a8 d3bc
00000030: 789b 4abd c341 dcbc 4437 bc3d 9c35 053e
00000040: 5283 183d 4dd6 183e e00f 313c 624d ef3b
00000050: c172 3abd 61a6 853d 7771 0a3e 95c0 eabb
00000060: f5d7 b8bd 2099 993d c839 41bd a651 5cbd
00000070: 6d96 e43d ed06 d73c a617 c9bd edd5 b23d
00000080: 9996 27bd f959 c53d a225 da3c 9535 643d
00000090: c1c0 9a3d e4dd 283e 9610 f63d 3d25 c53c
000000a0: 003f 0a3e a5cc e7bc 6afb 2fbe 14c6 dd3d
000000b0: 31ca 1340 7cfd 113e ba84 413e 6894 31bd
000000c0: 69fa c8bd f5ca 92bd b394 3b3b 133e 893d
000000d0: 5f79 003e ba02 f5bd 3d05 00bd 7623 e33d
000000e0: 6a54 823d 2156 a0bd f7bb 76bd 8180 a7bd
000000f0: 1d99 86bc 42d2 98bd 7667 1b3e 3c31 183e
00000100: 2b55 9dbd f468 3ebd 1e13 08bd d1db 613d
00000110: 63d5 88bd 6bda 9a3d 8169 8d3d ba3e d53d
00000120: 1721 b03d 2ce7 4abd ef02 383e 9b01 97bd
00000130: d8d6 38be 163b c83d 4fc9 0ebe bbcd ef3c
00000140: 6acf b43d 488f 0d3e f649 433d 07ff 77be
00000150: a1dc 2940 aa63 bcbc fda1 723d eaaf a13d
00000160: 34c7 9e3d 4dde d53a a037 7a3d db68 f83b
00000170: 65fd d53d b076 8fbd 8ab9 83bd 917a a13d
00000180: 91c4 55bd bc82 47bd 639a 96bd 6834 adbd
00000190: ba99 fa3d 74d6 413d b6a5 39bc 0607 1cbd
000001a0: 74f3 6d3e ff1b 67bd 406b 3d3d 66cb f73d
000001b0: b77e c3bd d3f1 8cbd e22e e5bd 0415 253e
000001c0: 354a a0bd f2e0 03be 2298 cdbd c435 ba3d
000001d0: c910 dd3d 56ae 05be f611 e6bd c286 8bbd
000001e0: 0e60 123e 28e9 9ebb 6db4 6c3e c2ae 583e
000001f0: 4ed5 56be b8b1 933c 2722 9a3e 7539 003e
00000200: 987b fb3d 6182 13bd 4ec7 073e bda3 8dbc
00000210: 99ed 0cbe b0a2 223e d399 85bd 993e 00bc
00000220: fb31 893d 7a3c 023e a29c 16be 8d3c 393d
00000230: 123a 1a3c 7434 a1bd 71e8 cabd 5bda acbe
00000240: e96d f5bd 7c97 053e 34a4 523e fca9 3e3d
00000250: a915 bdbc 00da c8bd 4dfc 3a3d ad08 16be
00000260: 48dc bebd fdd4 1fbe 0fb2 0d3e 2d96 babd
00000270: 1061 8bbd 626c 0abe bf97 5e3e ad85 e3bd
00000280: 685d 0ebe 7f29 19be e5c1 f83d d728 823d
00000290: 8a3b 2640 cc6d 973d 9780 d73d 5c07 ba3d
000002a0: 2574 ae3d 2996 5b3e d8e5 6c3d 0f3b 26be
000002b0: bae3 57be acd9 483e 75d6 b5bd a3f7 33bd
000002c0: 56dc 2bbe 90e8 06bd 7415 cbbc 5301 a5bd
000002d0: 2f38 1d3e c193 eb3c fd97 9f3b f508 0bbd
000002e0: e840 4d3e f97d 04bd 0359 cebd 78d0 44be
000002f0: 236d 573d f953 c8be 7146 4a3e 057b 063e
00000300: 206d e6bc 9380 6ebd 03a6 ad3d adc7 793e
00000310: 71f2 8a3d eb59 143e 4308 15ba 8276 1fbe
00000320: e3d0 ee3b 97f9 ddbd 6c51 943e d76a 0e3e
00000330: 26cd 7abf 46fc 3ebe dc0c 41be 511d 183e
00000340: bdbf 5c3d dd1e e23d db88 f23d 38c7 fc3d
00000350: 4085 b03d 9258 d0bc aff9 12be 0883 9bbd
00000360: 6a3b 0e3e a7e4 2cbe bbb1 45be 7036 013e
00000370: 9b98 b9bd a790 133e 0086 0f3e f7e3 e93b
00000380: d151 88bd f86c b5bd 788e 0bbd 71d7 c13d
00000390: ff99 1c3e f4f2 833e e846 f7bd 774c 42bc
000003a0: f64a a03c fb6f d83c e1cd 013e c59f d6bc
000003b0: e63d 54bd 3134 743e 5e87 b4bd ace8 4bbd
000003c0: cefb b03c 41a6 53bc d6a8 543d 7b88 753e
000003d0: d1c8 81bf 2287 aebd 158b 293e 13e7 09be
000003e0: e479 0c3e ce03 413e f4f1 3dbc ba49 97be
000003f0: 0bcd f93d e456 41be 0caa 43bf c092 16bd
-0.38031477 -0.16938755 -0.08052261 0.08460365 2.9766378 -0.20326792 -0.106102996 -0.050576396
-0.05057525 -0.03978186 0.029769307 -0.02583719 -0.049464673 -0.026886826 0.091902286 0.13008732
0.03723461 0.149255 0.010807008 0.007302926 -0.045519594 0.06525875 0.13519846 -0.007164071
-0.090255655 0.074999094 -0.047174245 -0.053788804 0.11161504 0.02624842 -0.09818964 0.08732209
-0.040915105 0.096363015 0.026629273 0.055715162 0.07556296 0.16490895 0.12014882 0.024065608
0.13500595 -0.028295824 -0.1718575 0.10828796 2.3092158 0.14256853 0.18898287 -0.04335442
-0.09813387 -0.07167617 0.0028622567 0.06701293 0.125463 -0.11963411 -0.031254996 0.11090748
0.06363757 -0.07828928 -0.06023785 -0.08178807 -0.016430432 -0.074619785 0.15176186 0.14862531
-0.0768226 -0.04648681 -0.033221357 0.055141274 -0.06681325 0.07561191 0.06904889 0.10412355
0.086000614 -0.04953687 0.17969869 -0.07373353 -0.18050706 0.09776895 -0.1394398 0.029272905
0.088286236 0.13824189 0.047677957 -0.24218379 2.6540911 -0.022996742 0.059236515 0.07894881
0.07752839 0.0016316861 0.061088204 0.007580859 0.10448722 -0.0700506 -0.06431873 0.07884706
-0.052189413 -0.048708662 -0.07353666 -0.08457261 0.12236352 0.04732366 -0.0113310125 -0.038092636
0.23237401 -0.056423184 0.04624486 0.12099342 -0.09545653 -0.06882062 -0.11190583 0.16121298
-0.07826654 -0.12878779 -0.10038783 0.09092286 0.10794217 -0.13054785 -0.112338945 -0.068128124
0.14294454 -0.0048495717 0.23115702 0.21160415 -0.20979807 0.018029079 0.3010418 0.12521918
0.12279433 -0.03601301 0.13259622 -0.01728999 -0.13762511 0.15882373 -0.0652348 -0.007827424
0.06698986 0.12718382 -0.14708188 0.04522376 0.009413259 -0.07871333 -0.09907616 -0.33760342
-0.11983854 0.13046068 0.20570451 0.04654883 -0.023081617 -0.09807205 0.04565077 -0.14651747
-0.09319359 -0.15608592 0.13837455 -0.09110675 -0.068056226 -0.13517907 0.21737574 -0.11109481
-0.13902819 -0.14957236 0.121463574 0.06355446 2.597384 0.07393989 0.105225734 0.09083435
0.085182466 0.21444 0.057836384 -0.16233467 -0.21082965 0.19614285 -0.08878795 -0.043937337
-0.1678327 -0.032936633 -0.024790503 -0.08056893 0.15353464 0.028756978 0.0048704133 -0.03394409
0.20044291 -0.0323467 -0.100755714 -0.1922015 0.052594315 -0.39126566 0.19753434 0.13132866
-0.028128207 -0.058228087 0.0847893 0.24392577 0.06784523 0.14487426 -0.000568513 -0.15572551
0.007288085 -0.10838621 0.2896837 0.13907944 -0.9796928 -0.18650922 -0.18852562 0.14854933
0.053893793 0.11041043 0.11842509 0.123426855 0.086191654 -0.025432859 -0.14353059 -0.075933516
0.13889852 -0.16884099 -0.1930608 0.12618423 -0.0906231 0.14410649 0.1401596 0.007137771
-0.0665623 -0.08858675 -0.034071416 0.0946492 0.1529312 0.25771296 -0.12074071 -0.011859051
0.019566994 0.026420584 0.12676193 -0.02619923 -0.051816843 0.23848034 -0.08814882 -0.04978244
0.021604445 -0.012918056 0.051918827 0.23977844 -1.0139409 -0.08521868 0.16556962 -0.13467054
0.13718373 0.18849108 -0.011593331 -0.29548436 0.12197312 -0.18880802 -0.76431346 -0.036761045

fc1.bias f4 [64]
00000000: b5ad 823d 308e 223c 6d29 f83c 88a8 d0bd
00000010: ef20 9a3d 9a8c 183e 5439 66bd f489 f2bc
00000020: c0d9 1e3d 57cb 33bd 6016 f0bd 3124 8b3d
00000030: 7f02 913d b168 a93d 5081 0abe 322f ff3d
00000040: 5cbd a7bd 7dbe 963d 5624 b13d 1ecd d73d
00000050: 4f29 f13d 793c 213d 6ea1 31be 2f46 dabd
00000060: 068f 033e e5ce 0e3e c6fd fe3d 38fa 263e
00000070: 07cd c13d 5046 c7bc 60d6 0f3c cd0d eebd
00000080: 7f81 cf3d ad85 c73d 5ba9 e53d 2899 d03d
00000090: bbf0 64bc 120e be3d f3ba 513d f290 eb3d
000000a0: 79d4 143e 32dc 313c 7975 413d 7c79 383d
000000b0: 4e52 dd3c 5341 d9b9 b1b6 2b3d 62dd bbbd
000000c0: 7312 9f3d 841f 1fbe be49 e7bd b457 bc3d
000000d0: 7de5 cbbd 8269 bd3d 21fd e23d 1a9d b23d
000000e0: c3ee 2dbd b510 be3c 330a fb3c ecbd 4cbd
000000f0: 0701 a1bd 3065 e23d f761 373d 642c 363d
0.06380788 0.009921595 0.03029319 -0.10188395 0.07525813 0.14897385 -0.056207016 -0.029606797
0.03878188 -0.04389509 -0.11723018 0.06794012 0.07080554 0.082719214 -0.13525891 0.12460174
-0.08190414 0.073605515 0.08649509 0.1053717 0.11775457 0.03936431 -0.17346737 -0.10657918
0.12847528 0.13946112 0.12450747 0.16306388 0.09462934 -0.02432552 0.008779138 -0.11623726
0.10132121 0.097422935 0.112139426 0.10185462 -0.01397341 0.092800274 0.05120368 0.115022555
0.14534177 0.010855721 0.04723117 0.04503773 0.027016785 -0.00041438136 0.041922275 -0.09173085
0.07767191 -0.15539366 -0.11293362 0.091964155 -0.09955881 0.0924864 0.11083437 0.08721371
-0.04246403 0.023201326 0.030644512 -0.04998581 -0.07861524 0.11054456 0.04477116 0.044475928

fc2.weight f4 [128, 64]
00000000: ac23 97bd 262e 413e 01b6 fabc cf81 563e
00000010: 4379 573e f558 323d bf1b 96be ba21 593e
00000020: 2a6b 203e 1f4f be3d e8d7 07be 3dd3 b33c
00000030: f9f4 663e f71a b63d a65e 0d3f 4c1f 71bd
00000040: ce06 2cbe 2d58 713c 50ec bebc 8345 f13d
00000050: b7dd 10be 59cc 223e 7f0a 16bd 4954 ddbc
00000060: e39c 99be 7b1c 3e3e 6b24 00bc 6fe6 1dbc
00000070: eeec 3abe 0cab 0abf 82bf 553e 0b63 973d
00000080: 2593 eabb 390d 8abd e0c3 b53c fb26 1ebe
00000090: 92c0 22be 8164 b53e 84ce a03d e9fc afbc
000000a0: 2f58 45be 1bbd 42be 86ad 65be e6dc 3cbd
000000b0: 4ab1 3dbe 29ad e53d 790b 58be 283a be3e
000000c0: 9e7b 863e b7db 0bbe 2f89 703d 462f a6be
000000d0: a23d 6ebe b94a c6ba faa4 333b 0e33 b1bd
000000e0: 8672 32be c401 0abd 357f ec3d f398 8fbe
000000f0: be46 c83e 5654 663e b889 25be 5d1f 2d3c
00000100: dcb2 13be 7393 d83d b908 113d b313 973e
00000110: 7c8f 483e 225d 29be 5d30 9d3e d021 1a3d
00000120: e1a4 1f3d b805 fcbb 9080 6e3e f23b 2abd
00000130: 4c0b d83d 0d80 ff3d 8ea8 7fbf c7ff 26be
00000140: 9c8a 1dbf d327 903d 0042 2b3b a64b f9be
00000150: 2789 a5bd 20bb c83d f43d c0bf 19e7 6ebd
00000160: b546 6dbe 46e5 8bbe ee09 9c3d 23d4 173e
00000170: d934 b5be 466e d1bd 0d24 21bf 5399 4dbe
00000180: 97d4 2cbe 06bc 31be e7f6 4e3d 0275 423d
00000190: f5da b03b 422a 0cbe a3c2 f3bd ea98 5e3d
000001a0: 307c b1be 3bf8 11bf f0c2 0ebe 0dd4 94bd
000001b0: 8b5f 433e bc11 9e3d 4e67 973e 8293 143f
000001c0: 28a0 0e3e 551f a3bf 60ca 5abe 4f6f d2bc
000001d0: 3135 83bc 563a cd3d 1e3a e73d 918d 1f3c
000001e0: 3595 ac3e 760e 7ebe ef64 efbc 813d bbbe
000001f0: da74 0e3f 803e 513e 57c3 48be 51b2 d5bd
00000200: 2281 aebd 688b 62bc 287e 053c 7e8a 243e
00000210: 45be 003e b1a0 fd3c ead6 ccbd e029 54be
00000220: 410e f83c 2464 653d 7ad7 353e c7eb 3b3d
00000230: 3f3e 08be f8b5 ed3d 3919 59bf 6e09 e7bd
00000240: c1d0 1b3e 8fe2 073e ebda 21bd d31b 2cbd
00000250: 4529 383c 4fb9 833d 10d5 8b3d 3021 40bd
00000260: 4c16 20be d08b 85be e4e0 07be d6bd d5bd
00000270: 3661 acbd 257e 07be 7eb2 f1bd b613 73bd
00000280: 3c8a 863b ad44 3d3e 2203 f6bd 9e1d cfba
00000290: 8501 19be 51c2 253e dcc8 adbd d779 ef3d
000002a0: bb89 4abe 74f2 3e3d 28bb 413d 80f3 be3d
000002b0: aba8 77bd 69ce 6f3d 82af 33bc 1cfe 3bbf
000002c0: fb9c ae3d ae32 c83b 40cf 223e f344 07be
000002d0: 88cc 76be 0b8d c43d 0a00 363c c652 0bbd
000002e0: 8420 17bd acc7 dcbb e025 a23d 0f07 a23a
000002f0: 2f9a 00ba 8881 bc3b 7734 d7bc 8c85 ad3b
00000300: f520 d5bd af12 aebd e1f6 3dbe 001a 203e
00000310: 2565 cf3c d9ca ebbd e678 29be 17c7 0a3e
00000320: 0ae8 1c3e 9643 5abd 7990 82bc 97ba 76bd
00000330: 5b9d 303d fa1f 023e 778e 8abe 677f 5ebd
00000340: 5290 c9bd 264d 783d 712c 2f3d 4ace c43d
00000350: 4952 48bd fe37 023e c604 ae3e bed0 e23d
00000360: 1062 9e3d 8e86 39be 3065 d0bd 0ef3 d5bd
00000370: 8ab3 70be d951 0dbd 5e59 70bd ded9 fdbc
00000380: 6ced c8bc e44a 7a3d 0255 08be 3aab 053e
00000390: 6d11 e43d 01fd a4bd 5069 a0bd 3fec 143d
000003a0: 22f8 5fbd e1cd 92bd 1069 363d 151d 4bbe
000003b0: e86e ff3d 6d19 e43d ecb8 8d3d 82c1 3dbf
000003c0: 0f43 b13d 1211 e03c c58d b03a 0708 193d
000003d0: 12a6 b2bd d245 c23a 5240 cebd 9731 3abe
000003e0: 97c3 af3d 39e2 833d 110b 903d e84b 75be
000003f0: 0713 60be ebbd d1bd 776f 1c3e f8a8 8dbc
-0.07379851 0.1886526 -0.030604364 0.20947956 0.21042351 0.043541867 -0.29318044 0.21204272
0.1566588 0.09292435 -0.13265955 0.021951312 0.22554387 0.08891862 0.5522255 -0.058867738
-0.16799471 0.014730495 -0.023306042 0.117808364 -0.14147078 0.15898265 -0.036631104 -0.02701773
-0.30002508 0.18565552 -0.007821183 -0.009637459 -0.18254444 -0.54167247 0.20873836 0.07391938
-0.0071586543 -0.06740803 0.022188127 -0.15444557 -0.15893772 0.3542824 0.0785189 -0.021482902
-0.1927192 -0.1901745 -0.22429475 -0.046109103 -0.18524662 0.11214668 -0.21098126 0.37153745
0.26266187 -0.13658033 0.05872458 -0.32457942 -0.23265699 -0.001512847 0.0027411566 -0.08652316
-0.174265 -0.03369309 0.115477 -0.28046378 0.39116472 0.22493109 -0.16165817 0.01056656
-0.14423698 0.10574999 0.03540871 0.29507217 0.19585985 -0.16539434 0.3070096 0.037629902
0.0389756 -0.0076911114 0.2329123 -0.041561075 0.1054903 0.124755956 -0.9986657 -0.16308509
-0.61539626 0.07038846 0.0026131868 -0.48690528 -0.080828 0.09801316 -1.5018907 -0.05832586
-0.23171504 -0.2732336 0.076190814 0.14827017 -0.35391882 -0.10226111 -0.62945634 -0.2007802
-0.16877972 -0.17356881 0.050528433 0.04747487 0.0053971955 -0.13687995 -0.119023584 0.05434505
-0.3466506 -0.57019395 -0.1394155 -0.07267008 0.19079416 0.07718226 0.29571003 0.5803758
0.13928282 -1.2743937 -0.21366262 -0.025687842 -0.016016575 0.10020892 0.11290382 0.009738342
0.33707586 -0.24810204 -0.029222934 -0.3657036 0.5564705 0.20433998 -0.19605766 -0.10434402
-0.08520724 -0.013827182 0.008147754 0.16068456 0.12572582 0.030960413 -0.10001929 -0.20719099
0.030280234 0.056003705 0.17757979 0.04587915 -0.13304995 0.116069734 -0.8480411 -0.112810954
0.15216352 0.13270019 -0.039515417 -0.042018723 0.011240308 0.06431829 0.06827748 -0.04690665
-0.15633506 -0.2608323 -0.13269383 -0.10436599 -0.08416979 -0.13231714 -0.11801623 -0.05934497
0.0041058343 0.18483229 -0.12012316 -0.0015801673 -0.14941986 0.16187407 -0.084855765 0.11693161
-0.19779103 0.04661794 0.047297627 0.09323788 -0.06046359 0.058546457 -0.010967137 -0.73434615
0.085260354 0.006109557 0.15899372 -0.13209896 -0.2410146 0.09597214 0.011108408 -0.034014486
-0.036896244 -0.00673767 0.0791738 0.0012361723 -0.00049057876 0.005752746 -0.026270134 0.005295461
-0.10406677 -0.08499657 -0.18551208 0.15634918 0.025316784 -0.115132995 -0.16550025 0.13552509
0.15322891 -0.05328711 -0.01593803 -0.06023654 0.043118816 0.1270751 -0.27061817 -0.05432072
-0.0984198 0.06062045 0.042766992 0.09609659 -0.0489066 0.12716672 0.33988017 0.11074971
0.07733548 -0.18117735 -0.1017555 -0.1044675 -0.23505989 -0.034501884 -0.058678977 -0.030987676
-0.024527274 0.061106578 -0.13313678 0.13053599 0.11136136 -0.08056069 -0.07832587 0.036358114
-0.054679997 -0.071681745 0.04453379 -0.19835313 0.124723256 0.11137662 0.06920037 -0.74123394
0.086553685 0.02735189 0.0013469985 0.03736117 -0.08723082 0.0014821833 -0.10070862 -0.1818298
0.08582228 0.06439633 0.07033361 -0.23954737 -0.21882258 -0.10241302 0.15276895 -0.017292485

fc2.bias f4 [128]
00000000: f839 c33d 8c94 c6bd bf28 683d e116 843c
00000010: 5ed9 593c 69f2 13be 3ae3 3e3d 81b5 8abc
00000020: bc8e c93d 944c 853d 44aa a13d 6b08 11bd
00000030: 5769 31bd d486 ebbd 35ff aabd 36d9 a33d
00000040: 8828 613d f409 943d 53fe 1dbd c4e6 36bd
00000050: 2e52 9dbd d1bd 403c c22f a5bd 2602 b2bd
00000060: afae dc3d 747c 96bd 4efa 8d3d f0bf 8dbc
00000070: 5a62 0abe e770 bf3d 1de6 9cbd 77c1 de3d
00000080: 2799 00be 057f b53d c990 5b3d 2ee1 8ebd
00000090: d7d2 e83c f46a fa3d 07bf 21bd f2fc aabd
000000a0: 2c89 d5bd 2b20 073d ac91 69bd 0b03 50bd
000000b0: 6096 6e3c 24b2 6e3d 555d 383b 08d2 a73c
000000c0: e158 933d 444f 9abd c029 35bd abdb 89bd
000000d0: 3f8a b4bb 6efa bbbd 563d 0e3d 5a1b b6bd
000000e0: 8776 883d bcbf 28bd 0507 a7bd 4b04 3fbb
000000f0: ff3a fd3c 6472 bb3d 3ced 52bd dd15 a33d
00000100: bcd8 4abd f5a8 84bd 7655 00be 5f09 e3bd
00000110: 296b 77bd 66dc fb3d bf21 af3d 69b0 97bd
00000120: a654 61bc adc5 cbbc d092 cb3d f2b2 e13d
00000130: bef2 c1bc e57b 4fbd 0f7e 553d 2f13 d3bd
00000140: 9140 2b3d 99f1 b1b9 efcd 473d 9a79 e9bc
00000150: 6dbe 9bbd 6b72 d5bd 0586 ebbd 10bb 13bd
00000160: cd03 06bb dd73 053d 3df6 e5bc 3bcc ab3c
00000170: 5b77 b93d b098 e7bd 3e54 a33d 015d 643d
00000180: 909d fc3d 82ce d2bc ee20 e1bc 01b9 d83d
00000190: af6b a53d f98d 16be 0d2c c2bc 3e76 d83b
000001a0: 12fb 693c a02a debd 516e 663d 009d 9fbd
000001b0: 99a6 11bd 08bf 073d 99b1 553d 2acd 25bd
000001c0: 8500 0f3d 196e c63d 8ea2 cabd 7257 d13d
000001d0: dbcb 35bd 8499 03be 2c49 70bd 4cbb 003d
000001e0: 400a 86bd 0420 30bd 12df dbbd 5ef9 c93c
000001f0: 8273 e23d 450c 753d c322 b6bc 2d64 39bd
0.09532541 -0.09696302 0.056679484 0.01612419 0.013296453 -0.14447941 0.04660342 -0.016932251
0.098416775 0.06508747 0.07893804 -0.03540842 -0.04331335 -0.11500326 -0.08349458 0.08000414
0.054970294 0.07228461 -0.03857262 -0.04465367 -0.0768169 0.011764006 -0.0806575 -0.08691816
0.10775506 -0.07347956 0.069325075 -0.017303437 -0.1351408 0.09347706 -0.07661078 0.10876744
-0.12558423 0.08862118 0.053604875 -0.06976543 0.028420849 0.12227431 -0.03948882 -0.08349027
-0.10426554 0.032989662 -0.05702369 -0.050784152 0.014562219 0.058275357 0.0028131802 0.020485893
0.07194687 -0.0753465 -0.04422927 -0.067313515 -0.0055096443 -0.09178625 0.034726463 -0.08891936
0.06663232 -0.041198477 -0.08155636 -0.0029146846 0.03091192 0.09152678 -0.051495776 0.079631545
-0.0495231 -0.064775385 -0.12532601 -0.11085772 -0.06040493 0.12297897 0.085513584 -0.074066944
-0.013753092 -0.024874533 0.09940112 0.11020459 -0.023675319 -0.050655264 0.052122172 -0.10306393
0.041809622 -0.00033940075 0.048780378 -0.028500367 -0.0760468 -0.10422214 -0.115001716 -0.03606707
-0.0020449043 0.0325812 -0.028071517 0.020971408 0.090559684 -0.1130842 0.07975052 0.055752758
0.1233474 -0.025733236 -0.027481522 0.10582162 0.0807718 -0.14702596 -0.023702646 0.0066058924
0.014281051 -0.10847974 0.05625755 -0.07793617 -0.03555927 0.033141166 0.052171323 -0.040478863
0.034912605 0.09688968 -0.09894286 0.10221757 -0.044383865 -0.1285153 -0.058663532 0.03142862
-0.06544924 -0.042999282 -0.10735907 0.02465504 0.110571876 0.059826154 -0.022233373 -0.04526155

fc3.weight f4 [256, 128]
00000000: c500 173e fcc4 51bd e784 053e 8840 87bc
00000010: 722d d6bc f1a6 8cbe bb11 2e3e e8e7 3b3e
00000020: e5b2 02bd d817 273d 9b2f f1bc 8797 533c
00000030: f5a7 373c 7bcd 653e c115 87bf cd1a 2e3d
00000040: b971 ea3d 8193 f2bb 0977 3abe 5f0a 843d
00000050: ab81 08bc b69d afbd 2151 61bf 4254 adbd
00000060: 1871 83bd 301d 5e3d c6f3 93bd 613a 103d
00000070: 42cd 763c 6ce8 e1bd 4249 9b3d aab0 473c
00000080: a825 bf3b f1c5 2bbd 7d76 d1bd e2de 2bbf
00000090: 3afe c4bd 8610 973d 0eb3 493b 6f43 e43e
000000a0: ec8d 87bd a942 27bd 5e65 823c bce2 1ebe
000000b0: 1d90 cbbc 8ecc ccbe c3b9 16bd c090 b13d
000000c0: bde3 91bd 996e 363e 29f7 93be 35af 863e
000000d0: 7354 77bd 4924 01be 22ca 27bd 244b 9e3d
000000e0: 0a31 38be a61a 2e3e 7d2f 7f3d 0ffe 39bd
000000f0: a95f 4b3d 8f99 c03a cd9c 1d3e 829e 46be
00000100: dc32 afbd ed1a cc3d cd22 aebd 858a 4cbe
00000110: e227 a23e 0f0a c93c 4e95 c3bd 1d83 30be
00000120: a0f5 89bd a3a0 6ebf a7c1 9e3d 0ece b7bd
00000130: 27ef 14be 8c2a 133c ebee f9bd fc5d 5f3e
00000140: 377a 10be b893 a4bd 9e74 17bd 133f 10bd
00000150: 2312 ddbd c818 1ebd 4f8d 2e3d 2c42 7ebc
00000160: d6e9 ec3d 2d23 88be 3aa6 99bd 7598 32be
00000170: 1d43 eb3c ddf6 56be aa5e b03d 0941 2e3d
00000180: fdb6 ebbd 6304 f1bc ae7d 513e 35c4 32bd
00000190: 976f 39bd 2ef8 92bd ba25 02bc b3ff 1b3e
000001a0: 5e3e 9cbd b452 86be 8186 b8bd 0c2d 2bbc
000001b0: 68b0 433d 4aa4 c4bd 79c9 1b3d 97bb 84be
000001c0: 3f11 2a3c a83c 373d 9c82 0e3e b96a 863a
000001d0: c51a b83d bd51 dfbc 116b 0abe 5ee8 4dbd
000001e0: d158 2dbe 0a57 323e e046 fbbe 4a52 ab3d
000001f0: e47d 06be e8da cbbb 1e0d 863d 57dd 9ebd
00000200: 5554 923d f753 88bf 1fdd d5bc 849a 913d
00000210: 2bd4 73be 82d9 d5bc 828c 643d ff81 f4bb
00000220: 422f e23c 002b de3a 6375 f13c d5c3 2cbe
00000230: ce57 afbd c66b b63d 78f3 073e 52ad 683c
00000240: ac3e 81bd 9916 1f3d be96 11be 6163 b4bd
00000250: 4c0d 5dbd 95b7 dcbd 9a84 76bd d0b4 0a3d
00000260: a2af d5bd e372 543c 3f4a 90bc 9ff7 c93c
00000270: 1ea3 73be 673e 3a3d c3ea 203d a73f 293d
00000280: 5912 933d bfc8 89bd ecd8 073e 9c12 36bd
00000290: 15e5 a0bd 3133 0c3b 9f9c bb3d 87a2 a5bc
000002a0: c5b0 e5be 11d0 5f3d 1724 2c3e 3280 20bd
000002b0: 5afd 173e 84ed b1bd e1c7 fcbd 766a 6cbd
000002c0: ec9c 1c3d 0c77 b7bd 46eb 763d a194 afbc
000002d0: 2334 2cbe 8617 03bb 2ae0 98bd 30f3 94bd
000002e0: 7bc6 b53c cbd7 90bd ebc6 8f3d 8cc8 223e
000002f0: 2045 ca3d 69de e43d 3ce0 b23e cf19 9abe
00000300: 4597 39bd 7ab1 ca3d 950c 6a3d cafd 9d3d
00000310: f3b3 1c3e 88da e73d 229c 063e 2ba4 1ebd
00000320: 4775 95bd 942e 02bf 6a1d 1b3d 2137 2e3e
00000330: a582 50bc cd51 cbbc 1d21 21bd 2c4b 26bf
00000340: 0f2e a7bd 85a3 cb3d 47b9 26bd f463 a63a
00000350: e0fa ba3d 10e6 453e 378b 3a3c e450 f93c
00000360: 8d87 49bd 4965 d33d 64e6 01be 8e1f a0bd
00000370: 8869 a43d 33a0 14bd 2a71 9b3d 82cf 26bd
00000380: 50e3 94bc 2362 afbc 1905 63be dd97 b8bd
00000390: db95 9d3c fa5a 713c a3a3 fabd f9f3 39bd
000003a0: 64b6 f0bd f321 0fbf 3031 c93d 84da 4a3d
000003b0: cd7e a93d e8f2 26be 6ae1 4abd c39c 21bd
000003c0: 7ab7 113e 423a 04bc f10d cebd 1e0e 013c
000003d0: 0bc9 81bd a575 b13d cb36 7e3d 7a26 9c3d
000003e0: a3a0 b03c b703 443d 6c7a 483e 7f6b c73d
000003f0: 39c3 9f3e 5f54 6e3d 34a0 6f3c 1221 cb3c
0.14746387 -0.05121325 0.1303898 -0.016510263 -0.026144717 -0.27471116 0.16998951 0.18350184
-0.03190889 0.040794224 -0.029441645 0.012914545 0.011209478 0.22441666 -1.0553514 0.042506028
0.11447472 -0.0074028377 -0.18209471 0.06447291 -0.0083316965 -0.08575003 -0.8801442 -0.084633365
-0.06418055 0.054227054 -0.072242305 0.035211924 0.015063586 -0.11030659 0.07582332 0.012188116
0.0058333464 -0.04193682 -0.10227678 -0.6713697 -0.09618802 0.073761985 0.003077689 0.44582698
-0.06618866 -0.040835056 0.015917476 -0.1551618 -0.024848992 -0.39999813 -0.03679825 0.08670187
-0.07123516 0.17815627 -0.28899506 0.26305547 -0.06038327 -0.12611498 -0.040964253 0.07729176
-0.17987457 0.17002353 0.062301148 -0.045408305 0.049651776 0.0014694202 0.15391846 -0.19396403
-0.085546225 0.09966073 -0.085027315 -0.19974716 0.31671053 0.02454093 -0.09549962 -0.17237516
-0.067363024 -0.9321386 0.0775178 -0.08974849 -0.14544354 0.008982312 -0.12203773 0.21813196
-0.14109121 -0.080359876 -0.03697645 -0.035216402 -0.10794475 -0.038597852 0.04261523 -0.015518706
0.11568038 -0.26589337 -0.07502408 -0.1744097 0.028718526 -0.20992608 0.08611806 0.04254249
-0.115095116 -0.029421037 0.20458099 -0.04364415 -0.045272436 -0.07176243 -0.007943565 0.1523426
-0.07629083 -0.26234972 -0.090100296 -0.010447752 0.047775656 -0.09601648 0.038033936 -0.2592437
0.010380088 0.04473558 0.13917011 0.0010255195 0.08989481 -0.027260656 -0.13517405 -0.05027043
-0.16928412 0.17416015 -0.4907751 0.08365305 -0.13133961 -0.006221164 0.06545471 -0.07757061
0.07144991 -1.0650624 -0.026106415 0.0710955 -0.23811404 -0.026104692 0.05579806 -0.007461786
0.027610425 0.0016950071 0.02947492 -0.16871579 -0.08561669 0.08907275 0.1327647 0.014201479
-0.06310782 0.03883991 -0.1421766 -0.088080175 -0.05396776 -0.10777203 -0.060185052 0.033863842
-0.1043389 0.012966844 -0.017613528 0.024654208 -0.23792693 0.045469668 0.039286386 0.04132047
0.07181234 -0.067277424 0.13266343 -0.04445134 -0.07856194 0.0021392817 0.091607325 -0.0202191
-0.44861427 0.054641787 0.16810642 -0.039184757 0.1484274 -0.08687881 -0.123428114 -0.057718717
0.03823559 -0.08958253 0.060282968 -0.021433176 -0.16816764 -0.0020003035 -0.07464631 -0.07272947
0.02218937 -0.07072409 0.070203625 0.15896815 0.09876466 0.11175234 0.34936702 -0.30097815
-0.045310277 0.09897132 0.057140905 0.07714422 0.1530302 0.113209784 0.13145497 -0.03873078
-0.072977595 -0.5085232 0.03786985 0.17013218 -0.012726461 -0.02481928 -0.03933822 -0.64958453
-0.08163082 0.09943298 -0.040704038 0.0012694583 0.09129882 0.19326043 0.0113857305 0.03043408
-0.049201537 0.10322053 -0.12685543 -0.078185186 0.08027941 -0.03628559 0.07589944 -0.04072524
-0.018174797 -0.0214091 -0.22169913 -0.090133406 0.019236496 0.014731163 -0.122382425 -0.045398686
-0.11753538 -0.5591118 0.09823835 0.0495248 0.082761385 -0.16303599 -0.049531378 -0.03945614
0.14230147 -0.00807053 -0.10061253 0.007876901 -0.06337174 0.08665017 0.062063973 0.07624526
0.021560973 0.047855105 0.1957795 0.097373 0.3120363 0.05818593 0.014625598 0.024796043

fc3.bias f4 [256]
00000000: aff3 233d e361 1cbd 33aa a03c a089 bebc
00000010: a490 03be 9817 8e3d 983a 043d f674 80bc
00000020: e2e6 ceba a960 943c 37ad 1abd 2e04 2e3d
00000030: def0 763c c6b2 863d 72d7 8ebd 71e7 9b3d
00000040: af73 29bd ba8f 5b3d 6a34 f4bc 7988 bcbc
00000050: 8c59 7cbd 4dd5 71bd 026d 8f3c 49a2 a93b
00000060: f704 883c 9b71 6bbd bdbe 82bc 502b 1e3d
00000070: 5349 58bd 7855 013c 95f8 703c e119 963c
00000080: 560d 193c 1008 903d 6354 493d a43b 0a3d
00000090: 6186 8cbd d791 7f3d 8bf7 733d 04c6 aabc
000000a0: 5be6 a73c 6318 70bd 640b e1bd 7f3d 653d
000000b0: efb3 a33a 23f8 e0bc 8c8d ad3d 8d31 7abd
000000c0: df08 aebd ffb2 87bd 94b4 1cbd 0f5a 06bd
000000d0: dd9a 183d 4e95 4b3d 1666 91bd 4896 523d
000000e0: 4add 853d 8597 0f3d c384 d03d ba51 98bd
000000f0: f329 2d3d a2d9 953c 3a24 723c 9554 84bd
00000100: 8afd a63c 0705 2b3c 21df f9bc e365 ecbb
00000110: 6217 b5bd 286a afbd 755f 65bc f354 29bd
00000120: 59d8 753d 8c12 a4bd 6349 cebd 16df cfbb
00000130: d55d 823d 1cee 223d 3c95 85bc 6df3 a2bd
00000140: af34 fc3b 3b82 5c3d 16be 1bbd 55ac 34bb
00000150: 4802 413c 0dab aebd 6f7e 61bd 03fc 9abd
00000160: ae8a 9fbd 60e7 2d3d f8ec 4c3c 6141 a23c
00000170: fa7b 51bd 9e5a 823c e4b2 983c cf62 a5bd
00000180: 11f2 71bd d93c 013d f1ae af3d 5081 71bd
00000190: fd1c 53bc 4f3c dc3c a2f9 383d f942 f13c
000001a0: 5dbe d9bc 5006 3fbd f0db a1bd 1f9c c4bd
000001b0: 61d0 3ebd 8686 91bd 9505 d43c 1ca3 aabd
000001c0: 9707 4fbd 3a31 083c 60bb 9bbd 43f0 3bbc
000001d0: 26fb a83d 7c5b 74bd aff9 053d 7b98 b6bb
000001e0: 6198 bb3c 7aa0 063d cdb5 1bbd adf3 b8bd
000001f0: 990f 793d 4d39 c3bd 2c8a de3a 7889 cebd
00000200: a5f5 d2bc 7329 37bb a0cb 7cbc 8c11 b83c
00000210: 71d2 0c3d 14f3 44bd ab14 74bd 5a7d 91bd
00000220: 9ff7 ddbc eef9 3bbd 600d 2e3d f718 92bc
00000230: 2605 88bd 7eef 103d 61da c5bc a45b 6dbd
00000240: 61bd 75bd 42f5 e6bc 6c98 56bc aab7 32bd
00000250: 6c61 8e3c 6daf 963c b951 853d 3b24 bfbc
00000260: 8b6f 3d3d 53de a13d 0652 0f3d 3ed0 70bd
00000270: 2095 2c3d 2b76 553d df1b 193d 534f 2c3d
00000280: 22fa 66bd 26db b4bd a43c afbd c2ce 11bd
00000290: 196b 58bc 65db 7ebd 1e07 1f3d a47d b83c
000002a0: ae8b 243c 8755 6b3d 230c 363d a39d a23d
000002b0: 8453 b0bb 996a 623d 0404 3abd cc83 953c
000002c0: 0fa9 263d cf3b 263d e40a afbc f0dd 983c
000002d0: b30a fabb 339c 193c 9b7c 1d3c 6b84 0bbe
000002e0: d2d9 223b 93af c6bd c969 4c3c fa06 6d3c
000002f0: fea1 9fbd 61d6 363d a41d 943c 9fe6 8abd
00000300: d03b 3cbd ed54 683c f461 953d 5b54 313d
00000310: bda9 9dbc 3379 1b3d 6703 6dbd db99 9dbd
00000320: b234 67bc df94 e3bc 1e7e 933c fb80 8d3d
00000330: f94e 623d fffe 4d3c 4d7c 64bd 6b5d a939
00000340: 1cd9 a13d 9869 c3bd f664 a1bd a818 42bc
00000350: c664 9bbd f3f8 4fbd a502 4dbb 2d79 8dbd
00000360: a8b5 b23d b48e 8abd e2af 893d a88c 473c
00000370: 0899 5f3b e30b 303d d5df b73c 7680 b73d
00000380: 2f87 a73c c98c 33bd 9a4f a9bc f86c 7b3d
00000390: 682f 5e3b 8c12 4e3d c72f 233d 9c8c 0cbc
000003a0: 6935 53bd c05c 8dbd b0e3 b73c 3b76 babd
000003b0: cfea e33c 33ce 4abd 6a8c 9ebd 9525 873d
000003c0: ba59 b03c 299b 5e3d fa83 313d 2c21 653c
000003d0: f405 853c f383 7cbc 04aa 9e3c 86a4 a4bd
000003e0: 5bb3 21bc 39d3 813c 6d7f 543d ad4c 093d
000003f0: a258 4e3c 1dfb c8bb c54c 913d ccb4 643d
0.040027317 -0.03817929 0.019612407 -0.023258984 -0.12848145 0.06938094 0.03228244 -0.015680771
-0.0015785361 0.018112497 -0.037762847 0.042484455 0.015072076 0.06577067 -0.06974687 0.07612503
-0.04137009 0.053603865 -0.02981015 -0.023014294 -0.061608836 -0.05904131 0.017508034 0.0051768166
0.01660393 -0.05748139 -0.015960092 0.038615525 -0.052804302 0.0078939125 0.014707704 0.018322887
0.009341558 0.07032788 0.049152743 0.033748284 -0.06861568 0.062394943 0.059562247 -0.020846374
0.020495584 -0.058617007 -0.10988501 0.05596685 0.0012489537 -0.02746207 0.084742635 -0.06108241
-0.08497786 -0.06625938 -0.03825815 -0.03280073 0.037257064 0.049702935 -0.070995495 0.05141285
0.06536348 0.03505661 0.10181572 -0.07437463 0.042276334 0.018292252 0.014779145 -0.06461445
0.020384569 0.01043821 -0.030501904 -0.0072142943 -0.088423505 -0.085651696 -0.0139998095 -0.04134078
0.06002078 -0.0801135 -0.10072591 -0.0063437326 0.06365553 0.03977786 -0.016306512 -0.07956586
0.00769671 0.053835135 -0.038023077 -0.0027568538 0.011780329 -0.08528719 -0.055052217 -0.07567599
-0.07790123 0.042456985 0.01250767 0.019806566 -0.051143624 0.01591235 0.01863999 -0.08075487
-0.059068743 0.03155217 0.08578289 -0.058961213 -0.012885329 0.026884226 0.045159943 0.02945088
-0.02658003 -0.04663688 -0.07903278 -0.0960009 -0.046585444 -0.071057364 0.025881568 -0.08331892
-0.050544348 0.008312518 -0.07604098 -0.011470857 0.08251028 -0.05965756 0.03270882 -0.0055723763
0.022899808 0.032867886 -0.038015176 -0.090308525 0.06080589 -0.09532414 0.0016978434 -0.10084814
-0.025751898 -0.002794829 -0.015429407 0.022469305 0.03438038 -0.04808338 -0.059590023 -0.07103987
-0.027095614 -0.04589265 0.042493224 -0.01783417 -0.06641607 0.035384648 -0.024151983 -0.057948723
-0.05999506 -0.02819312 -0.013097864 -0.043632187 0.017380439 0.018394196 0.06509728 -0.023332706
0.046248954 0.07903733 0.034990333 -0.058792345 0.042134404 0.052114647 0.037380096 0.042067837
-0.05639089 -0.08830862 -0.08556488 -0.03559757 -0.013209128 -0.06222095 0.038825147 0.022520848
0.010043068 0.057454612 0.04444517 0.07940223 -0.0053810496 0.05527744 -0.045413986 0.018251322
0.04068857 0.04058438 -0.021367498 0.018660516 -0.00763067 0.00937562 0.009612228 -0.13624732
0.002484907 -0.09701457 0.012476393 0.014466995 -0.077945694 0.04463804 0.01808054 -0.06782269
-0.04595548 0.014180404 0.07294074 0.04329334 -0.019245977 0.03795738 -0.057864573 -0.07695361
-0.014111685 -0.027780948 0.018004473 0.06909367 0.055251095 0.012573003 -0.055782605 0.00032303794
0.079027385 -0.09541625 -0.07880585 -0.011846699 -0.075875804 -0.050774526 -0.0031282094 -0.06907878
0.087260544 -0.067655 0.06723 0.012179531 0.0034118313 0.042980086 0.022445599 0.08960049
0.020450203 -0.043835435 -0.02066784 0.061383218 0.0033902768 0.050310656 0.039840486 -0.008578446
-0.051564608 -0.06902456 0.022447437 -0.09104582 0.027821926 -0.049513053 -0.077416256 0.06598965
0.02152716 0.05434719 0.043338753 0.01398496 0.01623819 -0.0154123185 0.01936818 -0.08039193
-0.009869422 0.01584779 0.051879335 0.03352039 0.012594374 -0.0061334507 0.07094721 0.055836484

fc4.weight f4 [512, 256]
00000000: 91e3 4e3d fb72 debd 1bbd dcbe 2abd 0cbd
00000010: 7b35 07bc 8753 77bd 3fc1 ff3d e2ef 223d
00000020: 1ed6 853d 2c26 c13d bd98 74bc 78f9 12bd
00000030: e242 77bd 8e57 913b 6cc8 0ebd ca7a 14be
00000040: 7b7e 8e3c ae51 83bd f8e2 49bd f61c f33d
00000050: dd17 fdbd 986e 3bbe 0b50 32bb f5e8 8fbd
00000060: df12 e7bc 157b ffbd 3b82 953e 928c 393e
00000070: 8c96 21bd 8c3f fd3c 3fa7 333d c650 803d
00000080: b3b2 b7bc 8514 163d e183 a7bb f55b 813d
00000090: 36c6 52be fe7a f4bd ba9e b0bd de0a ba3c
000000a0: 4b95 df3c e998 08be 026b 93bb 3e82 a93d
000000b0: 8fa6 883e 5832 1cbc 7dcb 8bbd 8507 d2bb
000000c0: 6807 c1bc cc4f 063d a8bf 9bbd ad78 0c3f
000000d0: 388d 0b3d 9f16 4f3e b4d4 5bbd 37a8 6dbb
000000e0: e78a c73c 5091 833d f3a7 473b 096d 703d
000000f0: 9eda a4bc b5b7 173e f600 cfbd 71e7 34be
00000100: a0ae 563d 5f2c 05bf 59d1 d1bc fe38 38bf
00000110: 2430 a1bc 30cc 453d d06c ec3d 8048 d8bb
00000120: b237 983d 6e36 e53c 00fc ba3c 18e3 18bf
00000130: 1335 24be 6ce8 b5be 3988 76bc 13ea a43c
00000140: 7d98 ad3e 9a52 8ebe c9fd 613b 429b dbbe
00000150: 50f4 8fbd aa2b 363d ced9 53bd f5b0 413d
00000160: d012 813c 016a c1bc 87e3 e53d fea8 4cbd
00000170: a142 acbd f34a 34be 6ea5 b03c 6cd8 94bc
00000180: c686 963d 14d9 373e ca34 863d bcc4 523b
00000190: c4b3 d13d 6858 22be 5f9b 27bd f1e0 14bd
000001a0: eb79 1fbe 92a2 28bd 6af5 55bb b1c7 24bd
000001b0: 7504 8abd b0dd 793d b6f4 0a3e 2c21 c5bc
000001c0: ab90 a4bd 2219 0d3d 7158 06be 0c11 d53c
000001d0: 6f36 533d 40e8 d8bc 23bd 893d 8e55 b2bc
000001e0: d8cf 353d 3a8d ad3c 17a5 b7bc 88f8 35bc
000001f0: 1d3c eb3c 4fe5 573d 6b53 353c 8e76 153c
00000200: 45cf 0ebd 1d15 3cbd 8455 41bd 2d87 e1bd
00000210: e924 4d3e ce59 2a3d cd38 603c f082 5e3d
00000220: be33 f03c d283 07bd c97a 193d ba41 d13d
00000230: e190 313d b83e e03d dd27 2fbe e65b 37bc
00000240: dea3 053d af78 26bd a32b a4bc 3469 e43c
00000250: b51e dd3c 91a8 9bbd c1ba 8cbd a493 96bd
00000260: cae1 bab9 6cc5 92bd 5664 093e 4a6c 553e
00000270: 409f 4b3d 255c 41be 9629 ad3b 00c2 9bbc
00000280: ba31 143e 0038 5238 0cf1 993c 6d8b 7bbd
00000290: 1bd7 b53d 85dc 923e 3adf 8ebc f878 143d
000002a0: 7e08 6bbd 28ba f03e e637 08bb caff 6f3d
000002b0: b6ba c73d 04c9 8e3c aa8d 0abf 66cd bbbc
000002c0: 7a53 e03d 4fa6 453e 9755 233e cfde 113a
000002d0: b780 49be 780a 453d a6c0 913d 2512 523d
000002e0: 6d25 78bc 0d23 ca3b 09f8 10be 50a7 d93d
000002f0: b5bb babd bf6e 53bc 302b b33d 8b3c 09bd
00000300: a5f1 52bd 9f97 583d 396c ae3c 87cb 193e
00000310: 1565 44be 6503 dfbc 9bb1 9ebd 60a8 5fbc
00000320: 4b87 9c3d 7671 2e3d 6414 cf3c b85c f4bc
00000330: 49c8 ef3b bc8a 55be 5fc3 6d3c a770 243b
00000340: 6581 6f3d c284 e3bc 1448 c8bc fc0f b23d
00000350: b8c7 643d 8e50 893d 0965 04bd 2ab6 79bd
00000360: 65ff 023e 5e9a 79bd 19f3 56bd e318 66bc
00000370: dab7 4fbd 7887 e33c 59dd 0a3e 9f51 0cbd
00000380: 9f81 c03a 1bcb 5ebe c91d f2bd 891e 9339
00000390: 029e 27bd fa79 7cbe e113 f3bc e4bd 7d3e
000003a0: 5104 ae3d e105 7f3e 71f7 5f3c eccd 9ebc
000003b0: c796 22bf 3a09 11bd 5a23 73bc 23bb 91be
000003c0: 1c96 a83c c484 b43d b4b3 653d f145 89be
000003d0: 4c48 263e 4d0b 6ebf 61fc 2d3b 723c 6dbd
000003e0: a584 b33c a6b5 c43c ce76 b13d 8f80 293d
000003f0: fdc1 01be 06e7 a9bc 4c6e 2abe dca4 c53a
0.050509993 -0.108617745 -0.43113026 -0.03436009 -0.008252497 -0.060382392 0.12488031 0.03977955
0.0653498 0.09431109 -0.014928994 -0.035882443 -0.06036652 0.004435486 -0.034859106 -0.14499965
0.017394295 -0.064120635 -0.04928872 0.11870758 -0.12358067 -0.18303907 -0.0027208354 -0.07026855
-0.02820724 -0.12474648 0.2920092 0.1812003 -0.039450213 0.03091409 0.04386067 0.06265406
-0.022424078 0.036640663 -0.0051121567 0.063163675 -0.20583424 -0.119375214 -0.08624025 0.02271026
0.027292868 -0.1333958 -0.0044988403 0.08276795 0.26689574 -0.009533487 -0.06825922 -0.006409588
-0.023563102 0.032790944 -0.07604915 0.54871637 0.034070224 0.20223473 -0.053669646 -0.0036263594
0.024358226 0.064242005 0.0030465096 0.058697734 -0.020123776 0.14816172 -0.10107605 -0.17666413
0.05241263 -0.5202083 -0.02561252 -0.71961963 -0.019676276 0.04829043 0.11544192 -0.0066004395
0.07432498 0.027980056 0.022825241 -0.5972152 -0.16035871 -0.35528886 -0.015047126 0.020131147
0.33905402 -0.27797395 0.0034483543 -0.4289189 -0.07029021 0.044475235 -0.051721387 0.0472879
0.01575604 -0.023610117 0.11225038 -0.04996585 -0.08411146 -0.17606716 0.021563258 -0.018169604
0.07349925 0.17953902 0.065530375 0.003216072 0.10239366 -0.15854037 -0.040919658 -0.036347333
-0.15573852 -0.041170664 -0.00326475 -0.040229503 -0.06739131 0.061002433 0.13569912 -0.02406367
-0.08035406 0.034447797 -0.13119675 0.026009105 0.051565584 -0.026477933 0.06725528 -0.021769311
0.04438767 0.021185506 -0.022417588 -0.011106618 0.028715188 0.05270892 0.011067252 0.009122504
-0.034865636 -0.045918573 -0.047200695 -0.11012111 0.20033611 0.04158955 0.013685417 0.05432409
0.029321548 -0.033084698 0.037470613 0.102176145 0.043351058 0.10949463 -0.1710505 -0.011191344
0.03262698 -0.040642437 -0.020040339 0.027882196 0.026992181 -0.07600511 -0.06871558 -0.07352379
-0.0003564491 -0.071665615 0.13417181 0.2084209 0.04971242 -0.18882807 0.0052844984 -0.019013405
0.14472094 5.0120056e-05 0.018791698 -0.061412264 0.08878919 0.28683868 -0.017440427 0.036248177
-0.057381146 0.47017026 -0.0020785271 0.05859355 0.09752409 0.017429836 -0.5412241 -0.02292509
0.10953422 0.19301723 0.15950619 0.0005564512 -0.19678007 0.048105687 0.07116823 0.051286835
-0.015145642 0.006168729 -0.14157118 0.106276155 -0.091178335 -0.012904822 0.08748472 -0.033505004
-0.05149998 0.052878972 0.021291839 0.15019046 -0.19179185 -0.027223298 -0.07748719 -0.013650984
0.076429926 0.042588674 0.025278278 -0.029829368 0.007317577 -0.20853704 0.014511912 0.002509156
0.05847301 -0.027773265 -0.024448432 0.08694455 0.05585453 0.06704818 -0.032322917 -0.06096474
0.12792738 -0.06093823 -0.05247793 -0.014044019 -0.050712444 0.027774557 0.13561 -0.034257527
0.0014687068 -0.21757166 -0.11822087 0.00028060775 -0.040922172 -0.24655905 -0.029672565 0.24779469
0.08496917 0.24904586 0.0136698345 -0.0193853 -0.6351132 -0.03540919 -0.014839971 -0.28463086
0.02057939 0.088143855 0.05607958 -0.26811174 0.16238517 -0.92985994 0.0026548135 -0.057918973
0.021913836 0.024012398 0.08665238 0.04138237 -0.12671657 -0.020740043 -0.16643637 0.0015079039

fc4.bias f4 [512]
00000000: 666d b3bb 0494 44bd 7c0d de3b 3c0f fd3b
00000010: 9c63 b6bc 753d 2a3d a135 723b 3ff8 913c
00000020: 1f7f 273c 0cf0 89bc 1e38 c3bd a0af df3c
00000030: 9fa3 46bd ea6d b0bc a27c 933b f415 8dbc
00000040: 9482 113d b665 50bb b8bc 75bd 9c6e 64bd
00000050: 9732 bd3b e058 c4bb 1aa8 32bc 6c30 79bd
00000060: 3fcf ae3c 52c5 b1bc 7ad3 c03c c355 f9bc
00000070: 8433 e9bc 9585 bfbc e3f6 093d a52b b7bd
00000080: 33e4 a83a 8fd2 f43c efb4 8e3c 088e c83c
00000090: 9757 0e3c 15b6 893c 9cc6 af3c c812 55bd
000000a0: d2ab 1fbc 2ef7 a7bd 16bb 2e3c 2a43 b4bc
000000b0: e046 2fbd 1b74 253d b6cb 3b3c a62f 45bd
000000c0: 8c80 2e3d 18d1 32bd afe6 3ebd f4a8 8e3c
000000d0: 4780 8e3c f267 f13c 9217 213d b924 ff3b
000000e0: f2fc 36bc 9738 82bd 02ab 543c 9619 5a3c
000000f0: d87c 65bd fbec 03ba 556c eb3c 56d0 373d
00000100: 431e 163d da32 85bd a9c2 0cbd 9e96 7ebd
00000110: 48e1 1d3d aaf5 5dbd a52e b1bd 2ec4 62bd
00000120: c2e3 6dbc d40d c93c 2e3b 3e3d 67e5 91bd
00000130: d7c5 07bc fe6f abbc e259 313d 2c01 ecbc
00000140: 6a3e 98bc bfc9 b3bb ca21 58bd d913 debc
00000150: fd5d 233d cc7f 4ebd 1e1e a7bc feb7 03bd
00000160: 3a50 c23c 3843 d83c 5db5 443d 360d e6bc
00000170: 34db 09bc 981b 0b3c ee8c 30bd 8aab 6abd
00000180: 36be 57bd c054 6dbd db57 3d3d 46a5 1b3d
00000190: a449 45bd 7e27 88b9 274d 9ebc 7b05 673d
000001a0: 132a f23b 2e9f efbc a513 cd3b 07c6 233d
000001b0: 7679 583b de06 5a3b 4a66 cf3a 05c5 3bbd
000001c0: 9fdb af3c 24dd febc c790 09ba 60e5 26bd
000001d0: f579 66bd 7aa5 71bd c7b3 7dbd eefb 08bd
000001e0: 2f91 073d e374 1b3d 105b ffbb ceb8 1fbd
000001f0: 604a 32bc 0dc6 2d3d 0975 35bd ded4 34bd
00000200: 31e5 153d 2250 2f3d 349d 0cbd e1a8 a3bb
00000210: 80ff 043d 564d 163c 86ba 50bd 0ed0 253d
00000220: 32c2 303d 0206 a9bc 21a4 f33b a669 bdbc
00000230: c008 26ba fe06 27bd 2a13 f13c e495 303c
00000240: d017 953c 7343 89bc 7fb2 65bd ab0a 94bd
00000250: 4896 f63c 275e 44bd 7637 42bc 556d 66bd
00000260: 4e6e 293d 30b1 86bb cbb8 ecbc 21a1 8cbb
00000270: 902b 03bc 4734 933c 46e8 153c 29ac b43c
00000280: 42cf 52bc 2c7b d0bb d0f8 59bc 007a 3a3d
00000290: 587e 2c3c 630e 3e3d bddc 8d3c ceb1 72bd
000002a0: 7b4b 593d b979 1f3d dcce 94bc 98ab 71bd
000002b0: 2102 033d 1362 c93a 6c33 9ebb 07af c2bc
000002c0: 826e 4f3b b9a8 dbbc 962e b53c a617 95bd
000002d0: 22d0 563c 9a3b 6bbd 0bbf fbbc 69da a6bd
000002e0: b087 213d 080e a7bd c5a2 2bbd b93b 3d3b
000002f0: 7148 823d f18a e03c 29c6 813b 9e15 c73c
00000300: 4931 41bd bdcd ab3b 996a 70bd 45f1 213d
00000310: 4d93 73bc 3e60 233c aa17 48bd 3c39 34bc
00000320: 62b1 983c 6e4a 263c 609d 203d 2653 61bd
00000330: 89e4 063d d0b4 3cbd b59b 5dbd 9d75 43bc
00000340: 5ef7 393c 49aa cb3c 845c 4abd 8bbc afbc
00000350: ef5e 473b e466 483d 5397 8cbc 4223 16bd
00000360: 4e9e 86bd ce5e f1bc 5c37 1abd ed3f 493d
00000370: 8346 7b3c a560 d03c 2501 4cbd 86ad 73bd
00000380: 2fc2 523c 61a7 f5bc a9f7 6fbc ba03 bebd
00000390: c2db 4ebd 6be0 4dbd 6e7e 7dbc ebad 25bc
000003a0: 650f a63c d206 42bc 115a 2bbd 6d8c 643c
000003b0: 4723 7d38 4bbe 8f3c b4cd a93c a155 8d3d
000003c0: cf1c 09bc 29b5 96bd 1517 623d 5845 d53c
000003d0: fbab 45bd da01 97bc 8829 cc3c c785 ed3c
000003e0: 2a7d d6bc 94b4 43bd 8ce6 8bbd 5ee4 9ebc
000003f0: 55d2 6c3b f76d 9cbd c45c 2abd 1927 7e3d
-0.005475688 -0.04799272 0.00677651 0.0077227633 -0.022264294 0.041562516 0.0036958235 0.017818568
0.010223179 -0.016838096 -0.09532188 0.027305424 -0.048495885 -0.021536786 0.0045009414 -0.017222382
0.03552492 -0.0031798906 -0.05999443 -0.055769548 0.005773853 -0.00599204 -0.010904336 -0.060837194
0.021339057 -0.021700535 0.02353834 -0.030436402 -0.028466947 -0.023379127 0.033682715 -0.089438714
0.0012885391 0.029885558 0.01742026 0.024481788 0.008687875 0.016810456 0.021457009 -0.052019864
-0.009745555 -0.08201443 0.010664722 -0.022004683 -0.0427922 0.04039393 0.011462143 -0.048141144
0.04260306 -0.04365644 -0.046606716 0.017414548 0.017395152 0.02946851 0.03932912 0.00778636
-0.011168705 -0.0635845 0.012980225 0.013311764 -0.056027263 -0.0005032566 0.02873818 0.04487642
0.036649954 -0.0650384 -0.03436533 -0.06215536 0.038544923 -0.05418936 -0.08651475 -0.055362873
-0.014519634 0.024542727 0.046443157 -0.07123833 -0.008286915 -0.020927425 0.04329861 -0.028809153
-0.018584449 -0.0054866965 -0.0527666 -0.027109073 0.039884556 -0.050414845 -0.020400103 -0.03215789
0.023719896 0.02639924 0.048024524 -0.028082471 -0.0084140785 0.008490466 -0.04310315 -0.0572925
-0.052671634 -0.057942152 0.046226364 0.037999414 -0.048165932 -0.00025969365 -0.019323898 0.05640171
0.0073902695 -0.029250707 0.0062584453 0.039983775 0.003303138 0.0033268253 0.0015823331 -0.04584219
0.021467028 -0.031111307 -0.0005247709 -0.040746093 -0.05626865 -0.0589957 -0.061939027 -0.033443384
0.033097442 0.03795327 -0.007792838 -0.038994603 -0.01088199 0.042425204 -0.044301067 -0.04414832
0.036595527 0.04280103 -0.034329608 -0.004994497 0.032470226 0.009173712 -0.050959133 0.04048162
0.04315395 -0.020632748 0.007435337 -0.023121666 -0.00063337013 -0.040778153 0.029428083 0.010777924
0.018199831 -0.016755795 -0.05607843 -0.07228597 0.030100957 -0.047941353 -0.011854043 -0.05625661
0.04136496 -0.004110478 -0.02889671 -0.004291669 -0.008005992 0.017969264 0.009149617 0.022054749
-0.012866797 -0.0063623395 -0.01330395 0.045526505 0.01052817 0.04640044 0.01731717 -0.0592516
0.0530505 0.038934443 -0.018165044 -0.059001535 0.031984452 0.0015364311 -0.0048279073 -0.0237651
0.003165156 -0.026813852 0.02211694 -0.07279901 0.013111146 -0.057429887 -0.030730745 -0.08147127
0.039436042 -0.08156973 -0.041903276 0.0028874709 0.06361473 0.027410002 0.00396039 0.0243023
-0.047166143 0.005243032 -0.05869541 0.039536733 -0.014866662 0.009971676 -0.048850693 -0.010999974
0.01863927 0.010149581 0.039212584 -0.055010937 0.03293279 -0.046070874 -0.054103572 -0.011929897
0.011350481 0.024861472 -0.049404636 -0.021452209 0.0030421575 0.04892625 -0.017162 -0.03665472
-0.06573163 -0.029464152 -0.03765045 0.04913323 0.0153366355 0.025436709 -0.04980578 -0.059491657
0.01286368 -0.029987039 -0.014646449 -0.092780545 -0.050502546 -0.05026285 -0.015472038 -0.010112266
0.020271013 -0.011842446 -0.04183394 0.013949496 6.0352755e-05 0.017546793 0.02072797 0.06901098
-0.008368685 -0.07358772 0.055197794 0.026034042 -0.048259716 -0.0184335 0.024922147 0.028994454
-0.02618273 -0.047779635 -0.06831083 -0.019396003 0.003613611 -0.07638162 -0.041592374 0.062049005

fc5.weight f4 [5, 512]
00000000: 6600 0a3e 18e1 b63b 344e 813e 5775 2d3e
00000010: da22 40bc eb5d b6bd 8a8b ac3d 7223 e93c
00000020: 260f c9b9 0140 9dbd 9193 d4bb 3383 e93b
00000030: ad62 d93c 204c 823f 1498 b2be 6682 d3be
00000040: 5af8 06bc e6cb 1ebd 0738 143d 582d ecbb
00000050: 439d abbd 2427 75bc 6719 7abd 8831 483c
00000060: fa00 623c 3784 25be f4aa 8a3d 1dd6 853d
00000070: 4760 a93d 3ca0 58ba 4ebb e33e 6bd6 5e3e
00000080: 22f6 9c3c 3131 4d3b df78 f53d 89e5 643f
00000090: 1ef4 183c 409b b5be 165c 8e3e a512 063d
000000a0: 2fbd 00be a44e ae3c 834d 14be 1783 bfbc
000000b0: bebb ae3c d339 723c 3a09 80bc 94c3 29bc
000000c0: caee d6be 7e87 a73c 96a3 2e3c 7b3e d13c
000000d0: 8918 9a3c f676 e4bd d896 b83c bcd3 363c
000000e0: e5d2 533e 7a59 71bc 66e8 303b a591 2b3e
000000f0: 27f4 2dbc 02cd ef3d b0e7 9cbc cd26 193d
00000100: 146f a03e 44c3 9c3b 2ef3 21bd 91e2 963e
00000110: 5e76 88bd 4243 57be 14cd 513d 6508 8dbe
00000120: 2d20 5abd 615f b53b 305f fabc e6ca 413d
00000130: 3a06 93be 1391 ee3f a538 203d 6800 5cbd
00000140: 1073 903c 740f 48be 18c0 953a 658a 4fbd
00000150: 811e b23c d66c 853b 6304 b73c 104f f1bc
00000160: bd66 fa3c 67a4 663d 12d3 513d eb99 9f3d
00000170: fc42 04bf e3ec d4bc 95c0 11bc 00d5 423b
00000180: 9646 9d3c f9ca a2bc b03b 8c3c 2f03 e1bc
00000190: 31b7 7b3c f798 db3c c08a 22bd 0f45 043d
000001a0: 68a7 363f b74c 1cba 926a 5b3c 19c0 a93c
000001b0: 8a4f 83bf 50ae 003f aa91 163f fa45 003d
000001c0: 01a7 82bc bdc1 283d 8c1d 883e 78d8 16bc
000001d0: 8821 dbbb 4fba d53c 5816 443c 90a8 d93c
000001e0: b501 093c b5e3 133c cdf0 4b3c 3970 7c3c
000001f0: fa45 5b3d 799e e33d bd96 f2bc 266a cbbb
00000200: e9e0 aa3d 6a32 48bc ce77 d43c e8bf 4cbd
00000210: 970a 153e ce69 053c 94e3 0f3c da78 203d
00000220: 1f9a 4e3e b4e6 ed3e cb09 fb3c a82c bebd
00000230: 235e 463d bba3 80bc 68cf 2e3d 1689 8939
00000240: e213 ab3d 9707 2c3b 9ad8 d43c b562 d4bc
00000250: ce37 3e3e 0f84 17bd aa99 aa3c f197 35be
00000260: 2ed2 d0bd 0fc1 61bc f4b4 903d 7ae7 25be
00000270: effd b8bd 2825 a03c 1a36 973d 04ec 963b
00000280: b263 99be 499e 03bf da75 553d f6f8 263d
00000290: 4ffc c8bd 837e 533c 8949 ebbc 6409 c6bc
000002a0: 1228 10bd 3a32 74be ba24 98be 5452 043c
000002b0: c00e e43d a632 68be 15aa 8fbd 72cc eb3c
000002c0: 2a7c 94be 7d37 6e3c 9ef5 cfbd 2b5d 9a3d
000002d0: 8585 86be 5179 a3bc b447 413d 2d68 8bbf
000002e0: 080a 343e 21cf eb3e 29fc 0f3d 1d90 24be
000002f0: 6848 c03e 1b5f fcbd 73d1 283c fdb8 253d
00000300: 2b03 31bb 446c b5bd 0ec1 623d f4dc 5dbc
00000310: 0f6e dc3e 9d83 323f 2d65 8cbc 66e4 02be
00000320: 2af8 893c eeba 42bd cb6c b03b 0f24 03bd
00000330: f532 c33c 0a53 e53c affb b3bd b219 633d
00000340: afda 053c 820f 093c 0628 c03c f625 223e
00000350: 21c7 5c3c 57ea 8c3e 2eae 283d 8043 ebbc
00000360: d91d 74bd 1923 d93c cbfb a53c e791 c5bd
00000370: b52d c13d b359 833c 94ab fdbd 60c5 ed3b
00000380: 399c 233c 1af8 7bbc 5d36 d9bb 7b4a 47be
00000390: 404b 55ba a902 39bd 74bc 8c3c 698b a43e
000003a0: eb4d 323e 11ff debc bfcf a83e 77ad dabc
000003b0: 86e0 3a3c eed0 a5bd 0722 073e 6267 0dbf
000003c0: e917 703e f69a b3bd 8fb1 153d 23ba f0bb
000003d0: c94b 12bd d268 b8bb 6049 35be 30dd 89bc
000003e0: 95a0 21bd 55a1 3bbc 41b5 3b3e 03fc e1bd
000003f0: c818 c43d f46a c9bc 8e68 59be 9402 65bb
0.13476714 0.0055810325 0.25254977 0.16939293 -0.011727059 -0.08904632 0.084250525 0.028459284
-0.00038348994 -0.076782234 -0.006487318 0.007126236 0.02653631 1.0179482 -0.3488165 -0.41310424
-0.008237923 -0.03876867 0.036186244 -0.007207554 -0.08379605 -0.014962945 -0.06105938 0.01221884
0.013794178 -0.16163717 0.06770888 0.065349795 0.082703166 -0.0008263623 0.4447884 0.21761481
0.019160334 0.0031309838 0.11985945 0.8941274 0.009335546 -0.3547001 0.2780463 0.032732625
-0.12572168 0.021277733 -0.14482693 -0.023377938 0.021329757 0.014784294 -0.0156294 -0.010361571
-0.41979057 0.02045035 0.010659119 0.025542488 0.018810527 -0.111555025 0.022532865 0.01115888
0.20685919 -0.0147308055 0.002699399 0.16754778 -0.0106172925 0.11709024 -0.019153446 0.03739052
0.31334746 0.0047840197 -0.039538555 0.2946973 -0.06663202 -0.2102175 0.05122097 -0.27545467
-0.05325334 0.0055350517 -0.030562967 0.04731264 -0.28715688 1.8638023 0.03911652 -0.053711325
0.017632991 -0.19537145 0.0011425046 -0.050669093 0.021743061 0.004071812 0.022340959 -0.029456645
0.030566568 0.05630913 0.051226683 0.077930294 -0.5166471 -0.025991863 -0.008896013 0.0029729009
0.019198697 -0.019872176 0.017118305 -0.027467338 0.0153635 0.026806338 -0.039683104 0.032292422
0.7134919 -0.0005962359 0.013392108 0.020721482 -1.0258648 0.5026598 0.58816016 0.031316735
-0.015948774 0.04120039 0.26585042 -0.009206884 -0.006687347 0.026089815 0.011968218 0.026569635
0.008362223 0.009026458 0.012447548 0.015407615 0.05353353 0.11114211 -0.029612893 -0.0062077222
0.083436795 -0.012219051 0.025936034 -0.049987704 0.14554821 0.008142902 0.008782286 0.039177753
0.2017598 0.46465075 0.030644318 -0.09285861 0.04842962 -0.015703073 0.042678267 0.00026232813
0.08353402 0.002624964 0.02598219 -0.025925973 0.18575975 -0.036991175 0.020825226 -0.17733742
-0.101963386 -0.013778939 0.07065764 -0.16201583 -0.09032809 0.019548967 0.07383366 0.004605772
-0.29958874 -0.514134 0.052114345 0.04076477 -0.09813749 0.012908581 -0.028721588 -0.0241744
-0.035194464 -0.23847285 -0.2971552 0.008076269 0.11135626 -0.22675571 -0.070148624 0.02878401
-0.2900098 0.014539597 -0.1015427 0.07537302 -0.26273742 -0.01995531 0.047187522 -1.0891167
0.17581952 0.46056464 0.035152588 -0.160706 0.37555242 -0.123228274 0.010303843 0.04045962
-0.0027009945 -0.08858541 0.055359893 -0.013541449 0.43052718 0.69732076 -0.017138088 -0.1278244
0.016841967 -0.04754155 0.005384063 -0.03201681 0.02382801 0.027993698 -0.08788239 0.055444427
0.008169814 0.008365514 0.023456585 0.15834793 0.01347521 0.27522537 0.041181736 -0.02871871
-0.059598777 0.026505994 0.020261666 -0.09646969 0.09432546 0.016033983 -0.123862416 0.007256195
0.009985977 -0.015378976 -0.006628795 -0.19462006 -0.00081365183 -0.045168553 0.017179705 0.32137612
0.17412536 -0.027221235 0.32970998 -0.026694043 0.01140607 -0.08096491 0.13196574 -0.55235875
0.23446621 -0.08769791 0.036546286 -0.007346408 -0.035716806 -0.00562773 -0.17703772 -0.016829103
-0.039459784 -0.011452039 0.18330862 -0.110343955 0.09575039 -0.024587132 -0.2123129 -0.0034944164

fc5.bias f4 [5]
00000000: 1e58 b73c 4051 9f3c 7e02 893c 9ca5 0338
00000010: 0676 1fbd
0.022380885 0.019447923 0.016724821 3.138707e-05 -0.038930915
